checkpoint_critic.pth (torch_old, 83980 bytes, 9 tensors)

fcs1.weight f4 [128, 24]
000000 63 19 d6 be fb 50 3a 40 94 2f 9b bd 40 7b ef 3e
       -0.41816244 2.9111927 -0.07577434 0.4677372
000010 dd 67 38 3e 1d 8f 80 be 62 b7 bd bc 89 e7 c1 3e
       0.1800837 -0.25109187 -0.023158733 0.3787196
000020 ef e1 96 be 3a 1e 42 40 55 8d fe bc e8 32 f3 be
       -0.2946925 3.033095 -0.031073252 -0.47499776
000030 8a bf c2 3e 46 81 a9 be d8 5f 78 bc 70 03 c6 be
       0.38036758 -0.3310644 -0.01515957 -0.38674498
000040 0b a0 f1 be 44 df 32 40 32 2b c5 bd 44 98 dc 3d
       -0.47192416 2.794877 -0.096273795 0.1077123
000050 cd 27 dc 3e 24 aa cb be 44 de 1f be fa 13 4b 3e
       0.42999116 -0.39778244 -0.15612131 0.19831839
000060 98 28 0a be 98 95 13 bf 17 39 0d bd 9b 74 48 bc
       -0.13492048 -0.57650137 -0.034478273 -0.012234832
000070 0e 83 a1 3f 99 35 84 3b f7 a4 30 3d 18 c3 97 bc
       1.261812 0.0040347097 0.043126073 -0.018525645
000080 b2 04 22 bd b4 ee b3 3d d6 5a fe bb 30 58 1a bd
       -0.03955526 0.087857634 -0.0077622933 -0.03768176
000090 8d b0 04 3f cb c1 a2 3e 0a 89 dc 3b cd bf 33 bd
       0.51831895 0.31788477 0.0067302035 -0.043884087
0000a0 dd 66 1d 3e 0c 32 2c 3f 8c 4a 41 bc 7d 21 3f bd
       0.1537127 0.67263865 -0.0117975585 -0.046662796
0000b0 63 b9 ff bf d5 a6 87 bd 43 00 b2 3b 5a ba c2 3c
       -1.997845 -0.066236176 0.00543216 0.0237705
0000c0 f3 32 89 3f 38 b6 0a bf c1 24 82 3d 5c 1f 57 3d
       1.0718673 -0.54184294 0.063546665 0.05252014
0000d0 14 08 2f 3f f5 ca 9a bf 97 80 07 bc 5c 10 d2 bb
       0.683717 -1.2093188 -0.008270404 -0.0064106416
0000e0 82 4f b5 3f b8 bd 9a 3e 81 de f3 3d af 12 97 3f
       1.4164889 0.3022287 0.119076736 1.1802577
0000f0 aa d1 aa 3e a7 d5 cc be e8 26 f3 bc d7 cf 97 3f
       0.33363086 -0.40006754 -0.029681638 1.1860303
000100 70 d5 c5 3f c3 e0 cb 3e 97 c3 81 3c 60 1c d3 3e
       1.5455761 0.39819917 0.015840335 0.41232586
000110 79 a1 0e 3f 27 2c 83 bf f4 b3 52 bc e9 a7 90 3e
       0.5571514 -1.0247849 -0.012860287 0.28253105
000120 0c c8 e4 3c c6 61 15 bf 6d bc d8 bd 05 c4 7a bf
       0.027927421 -0.58352315 -0.10582814 -0.9795535
000130 fe 58 3d 3f 54 a3 9b bf 25 c8 c6 bb 22 0b 8c bf
       0.73963916 -1.2159219 -0.0060663396 -1.0940897
000140 ec c5 c8 bd 8b d1 86 be 3f c4 28 3e 93 19 80 be
       -0.098033756 -0.26331744 0.16481112 -0.25019512
000150 00 6f 45 3e ec 53 ac bf e7 a5 82 3e 89 4d 0c be
       0.19280624 -1.3463111 0.25517198 -0.13701452
000160 39 14 1a be a3 2e 22 be 4c b2 30 be 06 11 9f 3c
       -0.15046777 -0.15838103 -0.17255515 0.019417297
000170 0d 87 f7 bd 90 a0 2d c0 be 6c 35 be 70 ac bb bd
       -0.12086306 -2.712925 -0.17717263 -0.09163749
000180 a5 62 bc 3f ca 66 0d 40 17 cc eb bd ca b8 3d be
       1.4717604 2.2093987 -0.115135364 -0.18527523
000190 9a 5f 35 3f cc 79 95 bf 35 c0 75 bd 54 67 99 be
       0.70849 -1.1677794 -0.059997756 -0.29961646
0001a0 08 aa 4c 3d dc 50 50 3e e1 38 cb bb 05 0f 2f bf
       0.049966842 0.20343345 -0.006201849 -0.68382293
0001b0 4d 06 c4 be 61 2a 9d 3f 9a f3 87 bc d9 f5 31 bf
       -0.38286057 1.2278558 -0.01659565 -0.6951576
0001c0 79 27 02 3f 28 b7 33 3f 71 bd e8 bc c9 eb 04 3f
       0.5084148 0.7020135 -0.028410645 0.5192228
0001d0 a4 63 aa be b3 da a5 3e 23 94 12 3c d4 ea dd 3e
       -0.33279145 0.32393417 0.008946451 0.43343222
0001e0 f8 94 5f 3e c8 2a 94 bd 0e 0a e4 bc 33 b6 a4 3c
       0.21834171 -0.072347224 -0.027836826 0.02010641
0001f0 34 75 b9 3d b1 f6 a9 be 90 66 d3 bd 74 b6 9b 3b
       0.09055558 -0.33196023 -0.103222966 0.0047519747
000200 5e a0 57 3e f0 68 5c b9 8e 80 93 3d eb b2 df 3b
       0.21057269 -0.00021019927 0.07202254 0.0068267486
000210 0f 33 dd 3d 8a 88 37 be 2f d3 77 bd e0 50 b2 3d
       0.10800754 -0.1792318 -0.060504135 0.08706832
000220 e7 45 35 3e b0 bd 61 bc c8 f4 d7 bd a4 e5 97 3d
       0.17702447 -0.013778135 -0.10544735 0.07416847
000230 d4 a6 e9 3d eb 63 09 be fa dd f4 bd 9b 3f 77 3d
       0.11408773 -0.13417022 -0.11956401 0.060363393
000240 64 6f 16 be dc a7 cc 3f 16 e1 86 3b 3a 59 21 bd
       -0.1469093 1.5988727 0.004116188 -0.039391734
000250 02 75 94 3e 15 f3 9a be 28 c9 8d bb 49 1e f9 bd
       0.2899552 -0.30263582 -0.004326958 -0.121639796
000260 a4 c1 aa 3e b0 ac a8 3f 69 01 cd bd db 8b d5 bd
       0.3335086 1.31777 -0.100100346 -0.10427066
000270 a5 d4 83 be 27 31 3b 3f 16 d9 13 3b 08 99 07 be
       -0.25748172 0.73121876 0.0022559813 -0.1324197
000280 3b 3b 6a 3f 54 55 c7 3f 8a 4d f5 bc 8f 05 ed bc
       0.9149663 1.5572915 -0.0299442 -0.028933315
000290 e9 5d e4 3f 14 6c d6 be c1 7e 1d be 6b 2b 80 3c
       1.7841159 -0.41879332 -0.15380384 0.015645703
0002a0 38 b4 6c be 78 5f f8 bf 0b 32 81 bd 06 3d 3b be
       -0.23115623 -1.9404135 -0.06308373 -0.18284997
0002b0 82 e0 6a 3d 23 0e 84 bf ee a1 eb bb 96 01 6f be
       0.057343014 -1.0316814 -0.0071909344 -0.23340449
0002c0 3c f0 0e be 3d 93 16 c0 58 3d b4 bc 2e bc 95 3d
       -0.1395883 -2.3527367 -0.022001907 0.07311283
0002d0 3c b5 34 3e a9 a7 b9 bf 10 f9 3b bc 0e 2a 02 3e
       0.1764726 -1.4504291 -0.011472955 0.12711355
0002e0 2f 9b fd bd 01 a7 43 c0 07 36 7a bc bd 39 38 be
       -0.123831145 -3.057068 -0.01527167 -0.17990775
0002f0 e5 2b e8 bd dc 04 04 c0 9d 64 ef 3c c6 c3 35 be
       -0.11336497 -2.0627966 0.02922278 -0.17750463
000300 c4 31 ea 3d ac c1 1b 40 66 da f6 3c cc 60 d1 bd
       0.11435273 2.4336958 0.030133437 -0.10223541
000310 31 c3 8a 3f 2e 71 ae bf 37 88 43 bd b3 f1 f8 bd
       1.0840818 -1.362829 -0.047737326 -0.121554755
000320 70 ab 68 be 6d 48 51 3e f4 50 ed bb c7 07 52 be
       -0.22721648 0.20437784 -0.0072423164 -0.2051078
000330 73 2a 90 3e d8 08 a0 3e 70 82 b7 3c ba 27 9b be
       0.28157386 0.31256747 0.022401065 -0.30303746
000340 d9 e9 03 3e e7 96 40 bf cd e2 fe bd c5 f8 7c be
       0.12882175 -0.7523026 -0.124456026 -0.24704273
000350 5e 8e 40 bf 4b 45 e2 3f 17 94 fc bb 99 7a 69 be
       -0.75217235 1.7677397 -0.0077080834 -0.22800674
000360 e7 cd d7 be b5 d7 4a bf 97 55 49 3e 75 e9 b0 be
       -0.4214928 -0.7923539 0.19661556 -0.34553114
000370 37 df b3 3e f5 52 1e c0 d7 98 1f 3e 9a fb a2 be
       0.35131237 -2.4738133 0.15585648 -0.31832582
000380 05 b2 e7 3d 7f 5e 36 bf 54 2e f6 bd 8e db 90 3f
       0.113132514 -0.7123794 -0.12020555 1.1317003
000390 e5 fd e6 bd 59 a6 47 bf f8 1a f2 bd 1c bb 80 3f
       -0.11278895 -0.779882 -0.1182155 1.0057101
0003a0 eb 42 27 3f d8 a4 53 bf 7d 35 01 3d 6c 8c 19 bf
       0.65336484 -0.82673407 0.03154515 -0.5997989
0003b0 49 2f 45 3e 92 3d a8 bf 0f 12 19 3c 76 4c ff be
       0.19256319 -1.314379 0.009342684 -0.49863023
0003c0 32 54 8c bd cb 4b 6e 3f 2c 35 20 3e 9a 09 d7 bd
       -0.068519965 0.930844 0.15645283 -0.10499878
0003d0 cf cc fa bc fe 36 cb bf 56 07 0f 3e ad 0c 17 be
       -0.030615238 -1.5876157 0.13967642 -0.14750929
0003e0 f2 59 64 3c 3b 2f 18 3f a6 47 a9 3b 80 bc 05 bf
       0.01393746 0.5944707 0.005166012 -0.52240753
0003f0 70 76 cb bd 56 f6 af bf b1 53 e8 3b 51 2f 00 bf
       -0.099346995 -1.3747051 0.007090055 -0.500722

fcs1.bias f4 [128]
000000 31 87 eb be 8b a9 9e bf 34 4b a6 bf 0b 58 c5 be
       -0.4600158 -1.239549 -1.29917 -0.38543734
000010 b3 09 95 bf e5 8c c8 be 4a 18 12 c0 24 a9 0b be
       -1.1643585 -0.39169994 -2.2827325 -0.13638741
000020 45 ae 58 bf cc ec 7c bf 12 51 df be c8 ef 86 3e
       -0.84640914 -0.98798823 -0.4361654 0.26354814
000030 4f 65 4b bf 3c 44 84 bf 14 b7 58 bf 99 fe 12 3e
       -0.7945146 -1.0333323 -0.84654355 0.14354934
000040 50 87 c3 bf 5f 35 cc bf 55 0a 08 bf 69 45 63 bf
       -1.5275669 -1.5953788 -0.53140765 -0.88777786
000050 4a c5 20 c0 a8 aa 05 bf d6 28 ce bf 52 31 78 be
       -2.5120416 -0.52213526 -1.6106212 -0.24237564
000060 6b 73 12 c0 ff e5 32 bf e5 81 1c be eb 5a ae 3e
       -2.2882946 -0.69882196 -0.15283926 0.3405374
000070 d3 c6 f5 be c3 85 f8 3e 73 70 d3 bf 8e d1 0b c0
       -0.48003253 0.48539552 -1.6518692 -2.1846652
000080 ef 58 1a bf 43 9b 0c c0 9e e1 98 bf b5 15 e8 be
       -0.6029195 -2.1969764 -1.1943853 -0.4532906
000090 00 f7 44 bf 6a ac 50 be 08 d4 77 3e 49 e1 26 3f
       -0.7693939 -0.20378271 0.24201977 0.6518751
0000a0 43 91 9f bf 28 2c 0b 3e ec 32 58 bf ee 1d 1a bf
       -1.2466205 0.13591063 -0.844527 -0.6020192
0000b0 4e 58 a9 bf 70 c4 32 3e d0 23 13 c0 86 77 7e bf
       -1.3230073 0.17457747 -2.2990608 -0.9940113
0000c0 c1 ca 01 bf b4 a7 94 3e 44 b8 25 bd 96 fe b1 bf
       -0.507 0.29034197 -0.040458933 -1.3905818
0000d0 91 6e 19 be b2 56 98 bd ee 28 98 be 9e c0 03 c0
       -0.14983584 -0.07438411 -0.29718727 -2.0586314
0000e0 8d 85 83 be 31 ea 44 be cd b7 a4 bf 2b 39 d3 be
       -0.2568783 -0.19229962 -1.2868592 -0.41254553
0000f0 a3 1f 93 bf 1b 30 98 3e a0 0e f4 3d ad dc 92 bf
       -1.149403 0.29724202 0.11916852 -1.1473595
000100 61 3c 44 bf 04 e8 9f bf ca 10 e1 3e 41 0b c3 bf
       -0.7665463 -1.249268 0.43958122 -1.523781
000110 3f 81 2c bf bc 15 3e bf c3 4e f5 be ce f8 02 bf
       -0.67384714 -0.74251914 -0.47911653 -0.51160896
000120 1e 58 30 be b1 18 0e bf f6 f5 a7 bf 0c b0 93 be
       -0.17221114 -0.55506426 -1.3121936 -0.2884525
000130 13 c8 6b bf bf 54 5b bf ba 2b 4c bf 90 d5 8a bf
       -0.92102164 -0.8567619 -0.7975422 -1.0846424
000140 ff 6a 9f bd 0e 4f 29 bf 0b 5e da be a4 ab e6 bf
       -0.0778408 -0.6613625 -0.42649874 -1.802113
000150 c5 7c 1f bf 5c b4 c0 be 83 23 81 be 5a ad 09 3f
       -0.6229976 -0.37637603 -0.25222406 0.5378014
000160 43 f6 2e bf 53 d1 87 bf 20 ac 85 bf cb cf c0 bf
       -0.68344516 -1.0610756 -1.0443153 -1.5063413
000170 1b 15 18 bf bf a0 bd bf 2e 4c 23 3f c3 37 6d bf
       -0.59407204 -1.4814681 0.63788116 -0.9266321
000180 28 9c e4 bf 66 42 be bf 4f 73 61 bf 53 07 53 bf
       -1.7860155 -1.4864013 -0.8806657 -0.8243305
000190 ed de 52 bf 60 92 7d bf 58 fd 11 bf 77 3a cb be
       -0.8237141 -0.99051476 -0.57027197 -0.39693043
0001a0 c7 a9 b8 be 2d 6f a5 bf 79 35 0e 3d 3a cb 32 bf
       -0.3606703 -1.2924553 0.034718964 -0.6984135
0001b0 83 71 cf bf fb ec 84 bd 1e 62 3f bf 80 c4 52 bf
       -1.6206516 -0.06490513 -0.7475909 -0.82331085
0001c0 6c 1e 4e bf 76 7b 92 bf 38 75 a2 bf 3c 91 2a bd
       -0.8051517 -1.1443927 -1.2692022 -0.041642413
0001d0 ef 2e 24 bf f1 6a 55 bf d4 dc 84 be c8 59 79 bf
       -0.64134115 -0.83366305 -0.25949728 -0.9740262
0001e0 bc 38 77 bf c2 44 5e bf 91 4d 62 bf 3c 5f 9e be
       -0.96570945 -0.86823666 -0.88399607 -0.30932033
0001f0 65 02 ec be b0 86 27 be d6 ad 12 3e c2 cc 86 bf
       -0.46095577 -0.16359973 0.14324126 -1.0531237

bns.weight f4 [128]
000000 d7 1d ff 3d 98 70 48 3f 5c 0c c5 3d 2a 2f 3f 3e
       0.124568634 0.78296804 0.09621498 0.18670335
000010 2d b2 28 be c5 d1 08 3d 2f 51 92 3e 6b 20 f0 3d
       -0.16474219 0.033403177 0.28577563 0.11724933
000020 5c 02 bc 3e b8 40 f1 3d 1e c0 25 3e 31 24 98 3d
       0.3672055 0.11779922 0.16186568 0.07428778
000030 d6 48 54 bc 85 a6 dd 3e c4 6f f1 3d 8c 1b 6a 3d
       -0.012956819 0.43291107 0.11788896 0.057155177
000040 a5 72 01 3e 30 e4 da bd fc af 73 3d a2 f0 86 3e
       0.1264139 -0.106880546 0.059494004 0.26355463
000050 ca 6f c5 3e ac 61 2c 3e 86 ac 22 3e 4a e0 c0 3e
       0.3856185 0.16834134 0.15886125 0.3767112
000060 3f 7e 11 be b4 d1 1c 3e 75 b5 f5 3d 8f a3 c6 3d
       -0.14208315 0.1531437 0.11997501 0.09699165
000070 33 3e b7 bc 24 b6 16 3f 10 2a 29 3e cb 7e ab 3d
       -0.022368526 0.58871675 0.16519952 0.08373793
000080 ef f7 18 3f e4 9d cd 3d 7c bb bb 3e f1 cb 5f bd
       0.59753317 0.10039881 0.36666477 -0.054637853
000090 7d a4 76 bc f2 77 de 3e 04 84 f5 3d 75 96 a6 3e
       -0.0150538655 0.43450886 0.119880706 0.32536665
0000a0 f1 ea 60 3e 47 1a a3 3d 26 1a 9e 3d 2a 7d f1 3d
       0.21964623 0.079639964 0.07719831 0.11791451
0000b0 8f 6e 17 3e 57 13 e6 3d 01 ed eb 3e 76 96 c7 3d
       0.14788269 0.112341575 0.46079257 0.09745495
0000c0 4f 1a 32 3e 52 1e 07 3f d3 04 9e 3e 2d f4 43 3d
       0.17392848 0.5278064 0.30863056 0.047840286
0000d0 c5 47 db bd ee a9 91 3e db f7 59 3d 24 af 1c 3e
       -0.10707048 0.2844996 0.05321489 0.15301186
0000e0 6a ee b0 3e 26 88 d0 3d 25 85 2a 3d a4 61 b5 bc
       0.34556895 0.10182218 0.041630883 -0.022141285
0000f0 97 ac c0 3f b5 b6 b2 3e 8d 62 31 bd 64 76 43 3f
       1.505267 0.3490502 -0.043306876 0.76352525
000100 76 03 47 3d 1f ab ea 3e 53 62 29 3e e9 59 1c 3e
       0.048587285 0.4583368 0.16541414 0.15268673
000110 9c 82 80 3e 97 54 9d 3d f1 99 24 3e aa 9a c6 bc
       0.25099647 0.0768215 0.16074349 -0.024243671
000120 26 50 5f 3e e8 50 d3 3d 9b 6f 20 3e 82 37 0b 3d
       0.21807918 0.10318166 0.15667574 0.033988483
000130 4c 9c ce 3d a9 27 80 3e dd f4 09 3e 71 9b b2 3e
       0.10088405 0.25030258 0.13472314 0.34884217
000140 a0 f9 1b 3e 84 51 ab 3e 18 5e ca 3d 42 26 4a 3f
       0.15231943 0.3346063 0.09881228 0.78964627
000150 0d 8f 84 3d da ef 6f 3b bf 29 d4 bd 8e 4c 40 3e
       0.06472597 0.0036611469 -0.10359525 0.18779203
000160 7f 8d 0b 3e 40 86 df 3e b6 da 07 3f ba cb 4d 3d
       0.13628195 0.43657112 0.530681 0.050243117
000170 0a b6 80 3d e5 4d 12 3e 4d 74 4d 3e 20 67 a8 3d
       0.06284721 0.14287527 0.20063896 0.082227945
000180 5d 12 dd 3d 3c 18 31 3f 6d 7a dd 3d 6c ee ba 3e
       0.10794518 0.69177604 0.108143665 0.36510026
000190 18 cb 62 3e b1 fe 07 3f b9 80 b5 bd 42 3f 6f bd
       0.22147787 0.53123003 -0.088624425 -0.058409937
0001a0 29 7e c7 bd 23 9b b5 3d 93 6f 91 3e 2b 65 a0 bd
       -0.0974086 0.088674806 0.28405437 -0.07831796
0001b0 68 80 05 3e 46 97 44 3e c7 c6 df 3c 2e 3a 87 bc
       0.13037264 0.19198331 0.027316464 -0.016507234
0001c0 dd 89 17 3e 88 c7 b6 3d 4d 44 a2 3e 9a ba 08 3f
       0.14798684 0.08924776 0.31692734 0.5340973
0001d0 04 1a 80 be bb 1f be 3c 9f 04 58 3e 65 4c a4 3e
       -0.25019848 0.02320849 0.21095513 0.32089534
0001e0 89 8d 42 3e 28 22 94 3e e7 59 81 3a 93 38 9e 3d
       0.18999304 0.2893231 0.0009868712 0.077256344
0001f0 60 78 03 3d 23 ba 8a 3e c4 c4 9f 3d bd 7a d4 3d
       0.03209722 0.27095136 0.07801202 0.10374973

bns.bias f4 [128]
000000 b8 31 9c 3c 51 5a 64 3e 30 fd 66 3c 64 5c 12 3d
       0.019066676 0.22300078 0.014098451 0.03573264
000010 81 9c 02 bd 92 79 42 3b c8 73 9e 3d 4a 39 1d 3c
       -0.031887535 0.0029674512 0.07736927 0.009596178
000020 1c 1a a0 3e 8d ba ed 3b 5f 80 ac 3c 8d cf 7c 3c
       0.3126992 0.0072549046 0.021057306 0.015430343
000030 07 3a 84 bd 88 b1 37 3e 10 5e f1 3b ad 97 23 39
       -0.0645638 0.17938817 0.0073659495 0.00015601395
000040 69 f4 1b bd 01 d8 21 bd aa c3 13 3c d0 b5 b9 3d
       -0.038074885 -0.039512638 0.009018818 0.09067881
000050 b3 9b 07 3b d4 1e f0 3b 75 e7 28 3d aa 07 53 3e
       0.002069217 0.0073278937 0.04123636 0.20608392
000060 4a 1a 15 bd 85 42 1d 3c 68 9c b6 3c 3c c2 9a 3b
       -0.036402024 0.009598379 0.022291377 0.0047228616
000070 a6 64 05 3a 3d 7c 91 3e 1d f7 c7 3d e7 e6 40 3d
       0.0005088545 0.284151 0.0976393 0.047095206
000080 79 1b bd 3e f2 4f 8d 3c b7 52 ef bd f2 c6 aa bc
       0.36935022 0.017250035 -0.116856985 -0.020846818
000090 5d c4 cc bb d5 01 c0 3d 37 3a 78 3c a4 b9 f0 be
       -0.0062489943 0.093753494 0.015150598 -0.47016633
0000a0 03 30 0d 3e 04 92 0a 3d be 0a 98 bb 00 93 bd 3c
       0.13787846 0.033830658 -0.0046399524 0.023141384
0000b0 ba 16 99 bc c7 8a 90 3c a1 8a d0 3d 84 ad 68 3d
       -0.018687595 0.0176443 0.10182691 0.056806102
0000c0 e2 1d 87 bd 5c 57 2c 3e 99 7c a0 3e 1f cb f3 3b
       -0.065974966 0.168302 0.3134506 0.0074399854
0000d0 6b 9d 71 bc 84 60 85 3d d9 cd 7b 3c 7c 2c 31 3d
       -0.014747004 0.065125495 0.015368902 0.043255314
0000e0 dd 65 e1 3d 36 dc 83 3d c7 8c f1 bb ef df 29 3e
       0.11005757 0.06438486 -0.0073715183 0.1658933
0000f0 77 2c e1 3e 65 1a 46 be 78 00 8b bb d2 f4 a7 3e
       0.43979236 -0.19346006 -0.0042419992 0.3280397
000100 76 7a 30 3c 77 c9 6b 3d 92 59 fe 3d 58 3a fa bd
       0.010771384 0.05756518 0.12419428 -0.122181594
000110 f9 11 61 3d 5c a0 0d 3c 67 14 ef 3c 2f 72 6f 3b
       0.05494878 0.00864419 0.029184533 0.0036536565
000120 2b ac a8 3d 67 a7 07 bd 46 18 82 3d 94 20 02 ba
       0.082359634 -0.03311863 0.06352286 -0.0004963961
000130 24 80 d6 bc 38 cc 12 3e 94 19 a1 3c 8a c4 b6 3d
       -0.02618415 0.14335716 0.019665517 0.089242056
000140 b4 c6 00 3d aa 08 51 3e 17 e5 1b 3b b5 55 cd 3e
       0.031439498 0.20413461 0.0023787671 0.40104452
000150 36 95 18 3e eb 0f 84 39 3c ec fa bc 0b d3 33 3d
       0.1490067 0.00025188862 -0.030630223 0.043902438
000160 fa 4e 96 3d 9a d1 d4 3d 1c 17 ba 3e 1e 61 4c bb
       0.07339282 0.10391541 0.36345756 -0.0031185816
000170 17 1a 14 3c 9a ee 03 3d bc ff 18 3c ac 81 a3 3b
       0.009039423 0.03220997 0.009338316 0.0049898233
000180 87 8d a0 3c b6 2b 87 3e b4 cb b4 3c f7 59 95 3d
       0.019598735 0.26400536 0.02206979 0.0729255
000190 22 d8 5b 3d 28 4b 5c 3d dd d9 34 bd 6c ae d3 bb
       0.053672917 0.053782612 -0.044153083 -0.0064600017
0001a0 b4 5e 4a bc 40 f3 7a 3d 2b c8 9e 3d 4b cb a5 bc
       -0.012351681 0.061267138 0.07753023 -0.02023854
0001b0 25 36 49 3d b6 3d 4a 3d 03 df 0f 3b bb 3d cb ba
       0.049123902 0.04937526 0.0021952994 -0.0015506068
0001c0 2b 42 bd 3c b1 f9 37 bc 9c 40 7c 3e 95 a8 84 3d
       0.02310284 -0.011228965 0.24634022 0.06477467
0001d0 dd 98 a6 bd a2 fa 4c bb 58 0f d6 3d 1e f4 b1 3d
       -0.08134625 -0.0031277318 0.10452145 0.0868914
0001e0 2f 79 76 3e 5a 2c 98 3e e0 04 c7 ba ae 5c 2f 3b
       0.24069665 0.29721338 -0.0015183948 0.0026758122
0001f0 d8 d3 14 b9 7f c8 ba 3d 0b de d5 3c 9f 26 e2 37
       -0.00014193298 0.09120273 0.026106855 2.6959284e-05

bns.running_mean f4 [128]
000000 aa ca 52 40 6c 89 aa 3f e6 0c 51 3f 90 c6 85 3f
       3.2936196 1.3323188 0.81660306 1.0451221
000010 fa b7 4a 3e 2d 34 0f 3e 48 aa db 3e a5 b4 0a 3f
       0.19796744 0.13984747 0.42903352 0.5418189
000020 24 50 18 40 fe 61 cd 3e 49 1e 82 3f 21 de a4 3e
       2.3798914 0.40113825 1.0165492 0.3220072
000030 79 a7 41 3b 27 31 7a 40 21 88 5a 3e 71 9a 62 3f
       0.0029549284 3.90925 0.21340992 0.8851691
000040 53 52 a4 40 c8 fd 29 40 ff 35 c2 3c 9e 43 38 40
       5.1350493 2.6561146 0.023707388 2.879127
000050 a3 96 b5 41 a5 d8 6a 3e fd c0 2f 3f 65 ce b1 3f
       22.698553 0.22934206 0.6865385 1.3891112
000060 79 6f 05 3f 96 68 4f 3c 8f 3a 91 3e 6d 6a 33 3f
       0.5212322 0.012659213 0.2836499 0.7008427
000070 f6 7d 73 3e a3 93 79 41 c8 05 80 40 95 21 4c 40
       0.23778519 15.598544 4.0007057 3.1895497
000080 fb 08 98 41 dd eb 7c 3e e2 de f3 40 ae b2 f0 3c
       19.004385 0.2469935 7.6209574 0.029382076
000090 25 f0 44 3f 2c e3 12 3e 43 c7 5a 3f 3c 3e c4 41
       0.7692893 0.14344472 0.854603 24.530388
0000a0 ae 71 38 41 cf 2f 5f 3e 43 b1 ad 40 93 6b 73 3f
       11.527754 0.21795581 5.4278884 0.9508602
0000b0 1a ee 42 40 65 5e 69 3e 00 53 a4 40 42 ba c7 40
       3.0457826 0.22789915 5.135132 6.2414865
0000c0 28 16 ed 3f 8c 3b 2f 3f ec fc 44 41 0d 56 a5 3e
       1.8522387 0.68450236 12.3117485 0.32292214
0000d0 14 96 a3 3e 71 05 14 3f 8b fc 2c 3f 77 87 ca 3e
       0.31950438 0.578208 0.6757285 0.39556476
0000e0 e1 fb 0f 3e f6 53 8c 41 c2 01 44 3e 66 d3 5d 41
       0.14060928 17.540997 0.19141296 13.864111
0000f0 a3 aa d2 41 65 3b 84 41 5f 69 05 3b 0e 03 6d 41
       26.333319 16.529001 0.0020356996 14.813246
000100 52 df 2a 3e 6d 8f 1f 41 0c 1d 10 41 94 2d a6 3f
       0.16686752 9.972516 9.0070915 1.2982659
000110 83 49 22 3f 84 7a 06 3f 56 e0 36 3e b5 f4 a3 3f
       0.6339342 0.52530694 0.17859015 1.2809054
000120 84 cc 0e 40 af 51 df 3e 74 92 5f 40 22 16 a7 3a
       2.2312326 0.43617007 3.4933138 0.0012747685
000130 b9 46 1b 40 24 83 9d 3f 7b 1c 31 3f 83 05 bf 3d
       2.4261916 1.2305646 0.6918408 0.09327223
000140 8b d1 74 3e 70 95 ab 3f 24 0a ce 39 2e ef 2a 3f
       0.2390806 1.340498 0.00039298937 0.6677121
000150 d7 4e 10 3f 88 9e 37 3c 73 b0 f5 3f 49 fc 8f 3f
       0.563703 0.01120723 1.9194473 1.1248866
000160 48 0b 96 40 70 90 1e 3f 0d 90 eb 3f 53 e1 e7 3f
       4.688877 0.61939144 1.8403336 1.8115638
000170 af 14 79 3e 67 64 26 40 e2 c3 0f 3f fa 31 e1 3e
       0.24324296 2.599878 0.5615827 0.43983442
000180 68 89 c7 3f 85 47 32 3f a1 81 a6 3f d7 bc 94 3e
       1.5588808 0.6964038 1.300831 0.29050323
000190 e2 77 1e 3f 0f 3a 52 40 d6 a1 5d 40 49 6e c2 3e
       0.61901677 3.2847936 3.4630027 0.37974766
0001a0 25 5e fa 3d c6 79 7b 41 e4 da 58 3f 4a ca 50 3f
       0.12224988 15.71723 0.84709 0.8155867
0001b0 cd 19 f4 3f 85 ee 6a 3f c2 6e 92 3d 28 ab 8d 35
       1.9070374 0.917702 0.071500316 1.0555132e-06
0001c0 0e 56 c1 3f c9 60 91 3e d5 17 cf 41 d7 69 7f 3f
       1.5104387 0.28394154 25.886637 0.99770874
0001d0 21 f3 49 3f 83 ef 0c 3e 89 47 a9 40 9f 01 75 3f
       0.7888661 0.13763241 5.2899823 0.957056
0001e0 88 e4 07 41 64 ee cd 40 4e 68 fe 3f 46 15 73 36
       8.493294 6.4353504 1.9875581 3.6222204e-06
0001f0 04 00 00 00 09 65 f9 3f 1d c7 f0 3f f6 80 24 2e
       6e-45 1.9483958 1.8810765 3.7403823e-11

bns.running_var f4 [128]
000000 08 1b ec 41 66 96 2d 40 5a b7 3e 41 3a 06 49 41
       29.513199 2.7123046 11.919764 12.56402
000010 41 26 da 3f 85 91 cd 3e 2a 36 19 40 44 58 73 40
       1.7042924 0.40150085 2.393931 3.8022623
000020 cb 25 49 41 68 9c 47 40 2f de 9f 41 ac f0 2f 40
       12.571727 3.1189213 19.983488 2.7490644
000030 8c 5d b3 3c 1c 01 65 41 f0 35 03 40 25 dc 17 41
       0.021895193 14.312771 2.050167 9.491246
000040 ba 36 40 42 dd 42 4a 42 72 cd 7e 3e b8 5a 14 42
       48.053444 50.565296 0.24883059 37.088593
000050 94 b1 a1 42 3c 6d 03 40 67 1d 33 41 e9 0f e6 40
       80.84683 2.0535421 11.194678 7.189442
000060 c0 8d a8 40 61 0f 22 3d f7 37 1c 40 22 7a d3 40
       5.2673035 0.039565448 2.4409158 6.608659
000070 d9 4f 25 40 e1 61 9e 43 c0 b4 a9 42 02 bf 52 42
       2.5829985 316.76468 84.85303 52.68653
000080 c1 25 2d 44 84 f1 07 40 5a a5 1b 42 e4 c0 85 3e
       692.5899 2.124116 38.911476 0.26123726
000090 3b 90 d8 40 f7 08 99 3f a3 61 33 41 a7 93 52 44
       6.7676063 1.1955861 11.211337 842.30707
0000a0 7b 92 09 43 ac b7 17 40 71 f0 99 42 9d ba 01 41
       137.57219 2.3705854 76.96961 8.10806
0000b0 36 33 e8 41 18 45 05 40 cb e4 88 41 41 61 f6 42
       29.025005 2.0823421 17.111715 123.18995
0000c0 0a ed 89 41 3e 86 e5 40 16 91 05 43 9a 02 9f 40
       17.240742 7.172637 133.56674 4.9690676
0000d0 9c 82 53 40 f0 00 9d 40 50 93 28 41 3c 73 12 40
       3.3048468 4.9063644 10.535965 2.2882833
0000e0 3a 7a 6b 3f a8 4e 85 43 40 f7 b0 3f 76 84 9e 43
       0.9198338 266.6145 1.3825455 317.03485
0000f0 aa 44 a2 44 cb d0 b9 42 cd f2 42 3c 7f 2a d6 43
       1298.1458 92.9078 0.0118987085 428.332
000100 67 19 8c 3f 73 7f 2e 43 47 9d a2 41 a8 3b a9 41
       1.0945252 174.49785 20.326796 21.154129
000110 c9 34 ab 40 7b c1 a8 40 1d cd 62 3f 50 55 a5 41
       5.3501935 5.273618 0.8859423 20.666656
000120 d1 54 d4 41 05 2c 96 40 a9 b0 bd 41 2e 98 fd 3a
       26.541414 4.6928735 23.71126 0.0019347721
000130 ef 38 33 42 56 58 94 40 05 56 03 41 22 69 4d 3f
       44.8056 4.635783 8.208501 0.80238545
000140 d9 08 05 40 5c e5 2f 41 1b d1 fa 39 97 49 3c 40
       2.078665 10.993496 0.00047839512 2.9419916
000150 2a 6a 90 40 81 41 ef 3d 08 af f6 41 94 b2 a8 41
       4.5129595 0.11682416 30.835464 21.087196
000160 66 ba c6 42 9c 22 e4 40 f3 e9 a6 40 a8 e0 d2 41
       99.36406 7.129225 5.2160583 26.359695
000170 a5 13 0d 40 67 8f 1f 42 0f d5 a6 40 ed ea b2 40
       2.204324 39.89004 5.213508 5.5911775
000180 4f 72 91 41 7b 5c 1f 40 c3 7a 3d 41 de f5 eb 3f
       18.180815 2.4900196 11.842471 1.8434408
000190 ab 61 ce 40 d1 b8 e3 40 44 07 29 42 85 ea 90 40
       6.4494224 7.1163106 42.257095 4.528628
0001a0 f5 73 88 3f a1 f6 3d 43 d2 0e 0f 41 52 54 29 41
       1.0660387 189.9634 8.941118 10.583086
0001b0 97 72 b4 41 e7 9d 01 41 79 56 fd 3e 0d 1f 13 35
       22.555952 8.10105 0.49480036 5.480695e-07
0001c0 42 87 73 41 d6 74 17 40 fe d1 94 44 a5 2a 31 40
       15.220522 2.366506 1190.5623 2.7682278
0001d0 fa cf 6c 40 01 ae a2 3f cc 07 70 42 28 d1 bf 40
       3.700194 1.2709352 60.007614 5.994282
0001e0 80 f3 47 42 5a f5 5a 42 70 0e 23 42 d1 92 d8 36
       49.987793 54.7396 40.7641 6.4543933e-06
0001f0 04 00 00 00 02 f1 e7 41 b7 25 88 41 b3 9e 34 2e
       6e-45 28.99268 17.018415 4.1068215e-11

fc2.weight f4 [128, 130]
000000 0d 2f 80 bd d6 65 39 bc 18 4d 48 3b 77 50 3e be
       -0.06258974 -0.0113157835 0.003056353 -0.18585382
000010 32 23 33 bd bc 5d 02 3d 49 6f 14 be 9a c7 42 bc
       -0.043734737 0.031827673 -0.14495577 -0.011888409
000020 75 98 2a bd 45 b1 6e 3d 1c 46 0e be 64 7b 9d bd
       -0.0416493 0.058274526 -0.13893932 -0.076895505
000030 dc f1 8e 3e ab 6d 6c bc 3a 5f 41 3c 94 37 6b bd
       0.279189 -0.014430444 0.011802489 -0.05742605
000040 30 20 72 bb 0b 79 91 3c 82 b9 8b bd 57 2c d9 bc
       -0.0036945455 0.017757913 -0.06822492 -0.0265104
000050 5c 3a 0f bd 23 15 12 be bc e3 9e bd 82 9d ba 3c
       -0.034967765 -0.14265876 -0.07758281 0.022780184
000060 08 28 9e bd dd 33 90 bd a5 b4 2b be 42 4e 73 bc
       -0.07722479 -0.07041142 -0.16768129 -0.014850201
000070 15 2d ab 3d 8c 2f e3 ba e6 bb ea bc 86 00 9e 3d
       0.08358208 -0.0017332896 -0.02865405 0.077149436
000080 b7 8e 16 be c0 ae a6 bd 94 f3 49 3d ae eb 0a 3e
       -0.14702879 -0.081388 0.04930456 0.13566467
000090 64 b7 78 3d dd e9 9d bd fa 1e 86 3d 3d 0c 78 3e
       0.06072177 -0.077106215 0.06548877 0.24223419
0000a0 d3 91 00 3c 3d 73 5b bc 03 ea 3a bd d0 2c 20 be
       0.007847267 -0.013394174 -0.045633327 -0.15642095
0000b0 dc 93 40 bb 70 a4 48 3d 9e 05 8a bd b1 99 41 3d
       -0.0029385006 0.048984945 -0.06739353 0.047265712
0000c0 73 8d 06 3e a3 8f 42 bc 3e 32 09 be 91 2e 11 be
       0.13139896 -0.011875066 -0.13398072 -0.1417792
0000d0 21 22 a8 bd 42 0c 74 3d 6b 13 93 be 64 5b d5 bc
       -0.082096346 0.059582002 -0.28725752 -0.026044555
0000e0 70 77 ad bd b3 16 23 be 70 59 85 3d 46 6a 48 be
       -0.084700465 -0.15926628 0.065111995 -0.1957179
0000f0 36 81 31 3d 91 4b 11 bd 9c 60 99 be ae e0 cf 3d
       0.043336116 -0.035472456 -0.2995652 0.10150276
000100 a9 13 cc bd 10 72 a0 bd 55 19 27 3d 18 0a 50 bc
       -0.099646874 -0.07834256 0.040795643 -0.012697719
000110 bc 2f 16 3c 85 c0 17 3c 19 15 05 bd 72 32 56 be
       0.009166654 0.009262209 -0.032490823 -0.20917681
000120 5f 2c ee bd f5 c7 bf 3d a6 f2 04 bd 9c 2e cb 3c
       -0.11629557 0.09364311 -0.03245797 0.024802499
000130 9c c7 21 bd 3c 60 b8 bd 92 32 66 be b9 84 79 bd
       -0.039497003 -0.0900273 -0.22480229 -0.06091759
000140 ac b4 3a be c8 57 54 be 23 c8 1c be ce 2d aa bd
       -0.18232983 -0.20736611 -0.15310721 -0.08309518
000150 ed 36 aa be e1 a0 25 be f9 aa 1e 3d 8a 0f 26 3d
       -0.3324503 -0.16174652 0.03873727 0.040542163
000160 a0 57 2f be 5c db 00 be 4c e9 6d 3d 48 67 51 bc
       -0.1712327 -0.12583679 0.058083817 -0.012780972
000170 e2 60 33 3d 21 3c 1f be d5 4f 93 bd ef 96 4f bd
       0.043793567 -0.15550281 -0.07192961 -0.05068105
000180 38 bb 81 3d ab a6 41 3d 37 9b a5 bd 6f 39 97 3b
       0.06334537 0.047278088 -0.080862455 0.004615001
000190 7d 31 11 be 20 bc db 3c 30 64 d9 bd d4 cd e8 bd
       -0.14179035 0.026823103 -0.106148124 -0.113673836
0001a0 09 c5 67 3d c3 6f 96 3c 63 7e 53 bc 1e fc 3c be
       0.05658439 0.018363839 -0.012908551 -0.1845555
0001b0 73 fd bf 3d 87 17 c6 bc 00 7b 9e be 85 29 b6 bd
       0.093745135 -0.02418114 -0.30953217 -0.08894638
0001c0 28 17 a6 3c e6 6b 5c bd 0f 2a 80 be 9c f6 6e bd
       0.020274714 -0.053813837 -0.25032088 -0.058340654
0001d0 b4 b6 74 bd d3 e0 9b bc 24 8a 9b bd 60 b2 07 be
       -0.05974455 -0.019028103 -0.075947076 -0.13251638
0001e0 0f b7 3e bd e9 c2 1d bd f7 a3 02 be 79 90 38 3d
       -0.046561297 -0.03851596 -0.1275786 0.045059655
0001f0 16 36 a1 bd 34 fc 13 be 59 df 00 be 99 c9 98 bd
       -0.07871644 -0.14451677 -0.125852 -0.07460327
000200 84 e1 2c 3e 36 93 7b bc 6b 0e db bd 0a 34 8e 3c
       0.16882902 -0.015354922 -0.106961094 0.017358799
000210 5b d7 0a 3e e1 31 18 be 31 15 a6 be d3 73 8e bb
       0.13558714 -0.14862777 -0.32438043 -0.0043473034
000220 de ee a6 3d b5 f0 54 be 5a 71 50 be 12 87 a8 be
       0.08151029 -0.20794947 -0.2035574 -0.3291555
000230 0e 36 9e bd 01 79 82 3e 74 b7 c4 3e ec f2 be 3d
       -0.07725154 0.25482944 0.38421214 0.093236774
000240 79 0e 89 be d3 7e e8 be 81 b2 9f 3d 37 2f f5 bd
       -0.26768854 -0.4540926 0.07797719 -0.11971896
000250 b2 ab 56 be 80 50 3f bc af e8 93 be b6 b9 2f 3d
       -0.20963934 -0.011676908 -0.2888846 0.042901717
000260 dd 45 8a be 91 75 8c be 7d dc 2f be 51 3a f3 be
       -0.27006426 -0.27433446 -0.17173953 -0.4750543
000270 a6 e6 27 3e 9e bd 2a be 6e 4c 7c bc f4 74 66 be
       0.16396579 -0.16673896 -0.015399082 -0.22505552
000280 97 53 3a be 5b f2 86 3c ce a2 a6 be 51 25 af 3e
       -0.1819595 0.016472986 -0.32546085 0.34208158
000290 fb 44 93 3d cc c3 91 3e db b1 b2 bd aa 6d ac be
       0.07190891 0.28469694 -0.087253295 -0.33677417
0002a0 e4 c0 b3 3d d5 b3 05 3d 68 88 c4 be d2 47 13 bf
       0.08777025 0.032642204 -0.3838532 -0.57531464
0002b0 5b d6 d5 bd b8 a2 03 bd 50 37 3b bf 41 36 39 be
       -0.10441276 -0.032137603 -0.73131275 -0.18087102
0002c0 11 c5 55 bd 38 72 4a be 46 9b 41 bd a1 4b be be
       -0.05218989 -0.19770133 -0.04726722 -0.37167075
0002d0 68 f1 a9 be 12 a2 3e bf ad ee f8 bc 69 4c d0 bd
       -0.3319199 -0.7446605 -0.030387247 -0.10170824
0002e0 c3 35 07 bc 8b 7b dc be 9f e2 e5 3d b2 d9 a2 bd
       -0.008252564 -0.43063006 0.11224865 -0.07951678
0002f0 60 f5 97 3e c8 2d bc be 90 39 36 3e a0 14 0a be
       0.29679394 -0.36753678 0.17795396 -0.1348443
000300 4d 41 1f be 5f 17 f0 ba 1c ba e7 bd 86 c6 ec bd
       -0.15552254 -0.0018317512 -0.113147944 -0.11561303
000310 4e 69 06 be 5c b5 8f 3d a2 d7 e3 be 89 b3 0e bd
       -0.13126108 0.070170134 -0.44500452 -0.034839187
000320 02 8d a2 bc c7 11 d0 be 5e d4 b3 be db 4d 97 be
       -0.019842628 -0.40638563 -0.3512296 -0.29551587
000330 2c 35 00 bf 41 16 69 bd 88 81 b6 be 5c b4 f4 3c
       -0.50081134 -0.05690599 -0.356457 0.029871158
000340 fd 96 75 bd 8f 47 52 bf 26 85 4d be 76 54 13 be
       -0.059958447 -0.8214044 -0.20070323 -0.14387688
000350 9e e7 18 3e 1d 9a 91 bb 67 6e 95 be 11 87 0a bf
       0.14932105 -0.0044434206 -0.29185793 -0.54112345
000360 38 c8 8a be aa f7 bb bb 37 c2 0e be 1a fd af bd
       -0.2710588 -0.005736311 -0.13941275 -0.08593197
000370 5b ca 9b 3c 1a 7a d9 be f0 c1 5e bd 72 e6 87 be
       0.019017389 -0.4247597 -0.054384172 -0.26543003
000380 8e f2 b6 be a5 77 c9 be 95 08 09 be 91 98 62 be
       -0.3573193 -0.39349094 -0.1338218 -0.22128512
000390 4f 83 c2 be e2 56 7e 3e cf 04 c6 bd ca 9c 98 3d
       -0.37990806 0.2483783 -0.09668886 0.0745178
0003a0 3a 30 49 be 55 09 82 3e dd e7 33 3c 68 44 8f bc
       -0.19647303 0.25397745 0.0109805735 -0.017488673
0003b0 e1 69 1e bc 8c 66 e5 3c 50 91 f0 3d bb dd b5 bd
       -0.009668798 0.028003 0.11746466 -0.08880182
0003c0 c4 65 28 be 50 e1 01 be 95 86 07 be c6 74 42 be
       -0.1644507 -0.12683606 -0.13234933 -0.18989858
0003d0 3c 55 99 be 08 ca 15 be 73 7a 94 bd e2 5b 12 3d
       -0.2994784 -0.1462785 -0.07249918 0.035732158
0003e0 ab 9b 59 be f6 9a 76 be 58 a3 04 be 14 dd 0d be
       -0.21250789 -0.2408255 -0.12952936 -0.13853866
0003f0 b5 25 79 be 4a e8 f9 3c 90 a8 ab be 89 9b 69 bd
       -0.2433079 0.030506272 -0.3352704 -0.057033096

fc2.bias f4 [128]
000000 8d 57 41 be d1 82 de be ad a6 87 be cb 1d 05 be
       -0.18881054 -0.4345918 -0.2649435 -0.12999646
000010 fc 4a 70 bb 9b b2 99 be 01 b1 5f be ae 58 96 be
       -0.0036665788 -0.30019078 -0.21844865 -0.29364532
000020 f1 d0 95 be de ee 36 bf a4 50 f0 be 85 33 8d be
       -0.29260972 -0.7145823 -0.46936524 -0.2757837
000030 87 30 22 bf 28 d3 84 be a2 7e a3 be 8b 72 c9 be
       -0.63355297 -0.2594235 -0.3193255 -0.39345202
000040 ce b6 4f bf 97 9b bc be 62 f8 51 be e1 b8 e1 bd
       -0.8113831 -0.36837456 -0.20504907 -0.11021591
000050 83 b2 1a bf 70 83 9e be 2d 5e 12 bf 1a 30 eb be
       -0.6042864 -0.30959654 -0.5717495 -0.45935136
000060 f0 e0 3d bf a3 dc b0 be c7 4e 96 be 6d bf d5 be
       -0.7417135 -0.34543332 -0.29356977 -0.4174761
000070 51 af 0c be 77 ea 30 bf 2d 0f 6d be 0d c0 38 3e
       -0.13738753 -0.69107765 -0.2315032 0.18042012
000080 01 7c 84 be 22 0d 90 be f3 59 cc bd d1 e2 39 be
       -0.25875857 -0.2813502 -0.09978094 -0.1815293
000090 84 b1 4f be f2 e8 3c be 02 9d 68 be 15 2c 88 be
       -0.2028256 -0.18448237 -0.22716144 -0.26596132
0000a0 eb aa 39 bb f9 d4 40 be 34 42 89 bd 03 35 63 be
       -0.0028330635 -0.18831243 -0.0670208 -0.22188191
0000b0 c5 13 6a bf 94 a6 10 be df 1a 4e 3c 21 e8 f6 be
       -0.91436416 -0.14126045 0.012579649 -0.48223975
0000c0 68 d1 6f be b1 cf b1 be f7 a2 0b bf 91 23 91 be
       -0.23419726 -0.34728768 -0.5454554 -0.28347448
0000d0 66 f9 80 be 80 bb d2 3e 09 c8 9e be b7 a3 8a be
       -0.25190276 0.41158676 -0.3101199 -0.2707803
0000e0 d5 af 8d be c6 55 1f be 6c a3 37 be 93 bf 10 bf
       -0.27673212 -0.15560064 -0.17933434 -0.5654232
0000f0 ef 56 6d be 07 e4 aa be a4 64 a3 be ca 96 7a be
       -0.23177694 -0.33377096 -0.3191272 -0.24471584
000100 d5 11 a0 be aa ef a0 be 9e 98 f1 be 30 13 58 be
       -0.31263605 -0.3143285 -0.4718675 -0.2110107
000110 8f 7d df be a0 03 46 bf 14 0c 21 be c7 62 84 be
       -0.4365048 -0.7734928 -0.15727264 -0.2585661
000120 31 25 1b be dd c8 c0 be a3 8b 1e be f0 34 0b bf
       -0.15150906 -0.37653247 -0.15482955 -0.5437765
000130 73 c3 47 be d2 7f 84 be 3c bc be be 1b 5a b6 be
       -0.19508152 -0.2587877 -0.37252986 -0.3561562
000140 fe cc 27 bf b2 84 7b be 84 9c 66 be ce d9 65 be
       -0.6554717 -0.24562338 -0.22520643 -0.22446367
000150 28 6e 8e be 70 7b b9 be 44 41 91 be b7 e9 9a be
       -0.27818418 -0.36226988 -0.28370106 -0.30256435
000160 a4 06 1b bf 52 6a a0 be 6d 1b de be 21 96 74 be
       -0.6055701 -0.31331116 -0.433803 -0.23885395
000170 ac 52 84 be 6c 6e e2 be 0b 0b 20 bf 77 49 e1 be
       -0.25844324 -0.4422487 -0.6251685 -0.44001362
000180 a5 69 81 be f6 de 91 be 81 9c 55 be de 2a 88 be
       -0.25275913 -0.28490418 -0.20860483 -0.26595205
000190 0a ff 67 be 8f 27 46 be d5 c4 59 be 2a 34 37 be
       -0.22655883 -0.19351028 -0.21266492 -0.17890993
0001a0 ce a0 12 bf a8 fd bc be 22 2a 2a be 57 15 41 be
       -0.5727662 -0.36912274 -0.16617635 -0.18855797
0001b0 7d 66 1f bf c7 1f d3 be 10 b0 88 be 82 ba 6a be
       -0.6226576 -0.41235182 -0.26696825 -0.2292271
0001c0 d0 a2 54 be 95 7f 0b bf 26 9f e4 bd c7 8e 36 be
       -0.20765233 -0.5449155 -0.11163168 -0.17827903
0001d0 10 30 88 be ed 0a 4a be 0f dd 90 be f4 1d 4c be
       -0.2659917 -0.1973073 -0.28293654 -0.19933301
0001e0 ad 7c 59 be 68 cf fe bd f6 51 6f 3d 68 45 54 be
       -0.21238966 -0.12441903 0.058427773 -0.20729601
0001f0 a9 80 b1 be 8e 31 5e be 9c 2c 5a be 18 9b 9b be
       -0.34668472 -0.21698591 -0.2130608 -0.30391765

fc3.weight f4 [1, 128]
000000 ce 2c a1 bc 63 f6 ce 3c c3 ed e9 3d 43 18 01 3d
       -0.019674685 0.02526397 0.114223026 0.03151728
000010 57 fc 94 3c 7f e9 df bc 98 98 8b bc d4 18 68 3c
       0.018186731 -0.02733302 -0.017040536 0.014166076
000020 4b 48 84 3c fd 85 2a 3d f5 24 42 bd ab d9 b2 bb
       0.016147753 0.041631687 -0.047398526 -0.005458077
000030 37 5a f7 bd 92 40 8a 3e bb 79 8b bd 36 1d 4d 3d
       -0.12077754 0.27002388 -0.068103276 0.050076686
000040 5e 4d 9b 3d 9d b2 9e 3d e9 ca ea bc f5 84 51 bb
       0.07583116 0.077489115 -0.028661208 -0.0031970118
000050 bf 5f 77 bd 4b f6 ed 3b a0 f4 c0 3d de ab e1 39
       -0.060394045 0.0072620264 0.094216585 0.00043043395
000060 7e 29 4b 3d 6a 1f 0b bc 00 30 00 bd 06 15 81 bb
       0.049600117 -0.008491376 -0.031295776 -0.003939274
000070 3d fc 60 bc 1f 25 cd bc 63 14 8b bc 07 8e 83 3d
       -0.013732013 -0.025042115 -0.016977495 0.06423574
000080 1f 6b db 3b 54 44 6e bc 03 25 3b 3d cb ae 90 bd
       0.0066961194 -0.014542658 0.045689594 -0.07064589
000090 de 5a c9 3b 62 38 bc 3c 96 be 4b 3c dd ad df bb
       0.0061448654 0.022976104 0.012435576 -0.006826146
0000a0 20 5b bf 3c 43 fd ae ba cf c8 ba 3c 72 c9 72 3b
       0.023358881 -0.0013350624 0.022800831 0.003704634
0000b0 69 d7 8f bc f4 97 10 3c e8 c4 24 3d ac eb cb bd
       -0.01755877 0.008825291 0.040226847 -0.0995706
0000c0 99 a4 66 3c a6 91 3f bc d9 47 70 bb 0c 3b 95 3a
       0.014077329 -0.01169244 -0.0036663918 0.0011385395
0000d0 ab f2 f1 bd 2a 34 aa 3c 4b ad ef 3e 7e 34 b4 3c
       -0.11813863 0.020776827 0.468119 0.021997686
0000e0 99 d4 ef 3c f2 0c c9 3a 78 af be 3c e2 26 95 3c
       0.02927618 0.0015338941 0.02327703 0.018207017
0000f0 35 c3 e5 bc 66 2f 96 3c 6e d3 ec 3b c5 dd 1c 3c
       -0.028047184 0.018333148 0.007227353 0.009574358
000100 f1 2f 95 3b 09 f5 f5 3b 9d 58 86 bc f5 69 ed ba
       0.004552834 0.007506017 -0.016399676 -0.0018113243
000110 4c 64 b0 3d 46 ac fd bd 33 a4 d8 bb 46 34 a9 3c
       0.0861288 -0.12386374 -0.006611371 0.020654809
000120 89 3b 4b bd cb bf 98 3c 92 1a 0c 3c 49 3d 51 bc
       -0.049617324 0.018646142 0.008551257 -0.012770959
000130 3e 16 75 3b fb 00 be bb 57 55 de bc 3e dd 83 3b
       0.003739729 -0.0057984567 -0.027140303 0.004024177
000140 bc 38 71 3d 8f 76 2f bd b0 66 5c 3b 69 fb d8 bd
       0.058891997 -0.042837676 0.0033630542 -0.10594828
000150 e7 29 a0 3c 3e 8c d9 bc d3 5f ca 3c 2f cb ac bb
       0.01955123 -0.02655613 0.024703896 -0.005273245
000160 5a 68 2b 3e 68 7a 1c 3e af bd f3 3c aa 58 d4 bb
       0.16739026 0.1528107 0.029753534 -0.006480296
000170 2a 56 73 bb ae 15 9a 3d 8b f3 19 bd 4f 82 1f 3d
       -0.0037130215 0.07523666 -0.037585776 0.03894263
000180 ed 41 5f bc 13 b0 8f bc a8 7f a7 ba bd c7 fa bb
       -0.013626558 -0.017540013 -0.0012779133 -0.007653205
000190 c7 ca 47 3c d8 59 c0 3b 61 30 1e bb 49 c6 a0 bc
       0.012194342 0.005870085 -0.0024137723 -0.0196258
0001a0 1e a4 aa 3d 3a 28 99 bd e6 fc a6 bd de 04 05 3c
       0.08332084 -0.07478376 -0.08153705 0.008118836
0001b0 65 7f 37 be b8 79 6e 3c cd cf 46 3c 5c 12 ba bb
       -0.17919691 0.014555387 0.0121345045 -0.005678458
0001c0 c4 5d 9d bb ef 29 19 bc 62 21 1b bb e6 7d eb 3c
       -0.0048024375 -0.009348377 -0.002367102 0.028746556
0001d0 c9 9a 0a 3d 26 9a 2e bc d1 2c 8d 3b ad 78 fb bb
       0.03383902 -0.010656869 0.004308321 -0.007674298
0001e0 07 68 59 bc 65 d5 ea bc 89 c1 ad 3c b7 e7 43 3d
       -0.013269431 -0.028666208 0.021210449 0.047828402
0001f0 7c c8 6a 3c 2f a8 5d 3c 22 37 56 bc 77 e5 ac bd
       0.014330026 0.013528868 -0.013074668 -0.084422044
