checkpoint_actor.pth (torch_old, 86876 bytes, 18 tensors)

bn1.weight f4 [24]
000000 c2 ad 6f 3e 11 1f 9f 3e 77 46 92 bd b6 80 88 be
       0.23406127 0.3107839 -0.07142346 -0.266607
000010 e9 66 58 3f a3 7b 5a 3f 19 83 c4 3d 7f 46 82 3e
       0.8453203 0.85344905 0.095953174 0.2544441
000020 55 a5 fa 3e af 6e f4 3e c7 1d a2 3d 7d ea af 3e
       0.48954263 0.47740695 0.07915836 0.34358588
000030 51 8a f0 3d eb 1a a1 3e f1 4a 2b 3e 85 bb de 3c
       0.11745132 0.3146585 0.16727807 0.027189026
000040 7f ab 2d 3f 45 67 17 3f 2e 46 9b 3e 31 d7 69 3f
       0.6783981 0.5914195 0.3032698 0.9134398
000050 78 1a ab 3f 61 7a 8a 3f bb 8d 7f 3e 80 12 8f 3c
       1.3367453 1.0818597 0.2495641 0.017464876

bn1.bias f4 [24]
000000 51 cf 6e 3e 29 ac c4 be 0d 69 3a be 32 c3 fa 3e
       0.23321272 -0.38412598 -0.18204136 0.48977047
000010 05 48 59 3f 54 15 99 3e ec 88 fe 3d 5c e1 5c be
       0.8487552 0.29899085 0.124284595 -0.21570343
000020 8a 06 c4 3e 8d b3 f6 be 90 b8 91 3e 28 37 ae be
       0.3828624 -0.4818386 0.28461123 -0.34026456
000030 91 1f ad 3e 73 16 04 3f a6 62 03 3e de 5f ea bd
       0.33813146 0.51596755 0.128306 -0.114440665
000040 99 c4 2e 3f 36 78 2f bf 73 51 51 3e 0a e8 e9 3e
       0.68268734 -0.685428 0.20441227 0.45684844
000050 bc aa 2e 3f 6e 22 4d 3e c8 58 f8 3d 90 2d b8 bd
       0.6822927 0.20032665 0.12126309 -0.08993065

bn1.running_mean f4 [24]
000000 11 53 c0 c0 b8 35 1a bf 48 31 f1 40 ba 0a c2 3c
       -6.01014 -0.6023822 7.537266 0.023686755
000010 26 4c d9 bd f8 16 7a 40 48 31 f1 40 ba 0a c2 3c
       -0.10610227 3.907652 7.537266 0.023686755
000020 dd bc c0 c0 57 4f 18 bf 57 73 fa 40 04 55 20 3c
       -6.0230546 -0.59496063 7.8265796 0.009785894
000030 a3 72 10 be 56 e0 7a 40 57 73 fa 40 04 55 20 3c
       -0.1410623 3.9199424 7.8265796 0.009785894
000040 db 57 c1 c0 c3 fc 15 bf 8f cb fd 40 80 98 95 3c
       -6.0419745 -0.5858881 7.9310985 0.018261194
000050 ba 13 31 be 60 17 7b 40 8f cb fd 40 80 98 95 3c
       -0.17292681 3.9233017 7.9310985 0.018261194

bn1.running_var f4 [24]
000000 25 0a 9c 41 77 5c 8a 3f f8 30 d2 43 a0 d2 77 41
       19.504953 1.0809468 420.38257 15.488922
000010 fc d6 e2 41 d1 f2 06 40 f8 30 d2 43 a0 d2 77 41
       28.354973 2.1085703 420.38257 15.488922
000020 fb a0 9d 41 d7 a5 8b 3f a6 dc cf 43 ea 67 74 41
       19.703604 1.0909985 415.72382 15.27537
000030 d2 ae e4 41 36 c6 05 40 a6 dc cf 43 ea 67 74 41
       28.585361 2.0902228 415.72382 15.27537
000040 28 ea 9c 41 42 27 8c 3f 89 bd ce 43 05 5a 73 41
       19.614334 1.094948 413.48074 15.209477
000050 f9 9e e6 41 ce 4c 07 40 89 bd ce 43 05 5a 73 41
       28.827623 2.1140628 413.48074 15.209477

fc1.weight f4 [128, 24]
000000 b2 ad 1a 3f 33 b5 45 be 0d b9 8c 3e 0c 4b 24 be
       0.6042129 -0.19307403 0.27484933 -0.16044253
000010 24 cd c8 3d b3 68 e7 be 3e 6e a5 be 4f 44 ce 3d
       0.098047525 -0.45197067 -0.3231067 0.100716226
000020 3e af 3a bd 7a 96 c3 3c ce da 86 bf ce 06 08 3e
       -0.04557728 0.023875464 -1.0535524 0.13283846
000030 7b c2 87 3e ec 7a ae bb b0 f1 5f bf c4 6c 53 3d
       0.26515564 -0.005324712 -0.8747816 0.0516174
000040 fd 3a 36 be 80 90 9b 3e 48 df 0a bf 17 d9 8e 3f
       -0.1779594 0.30383682 -0.5424695 1.116
000050 c7 57 a3 3d a6 4f 04 3f 5e 86 98 be 6c 41 f4 3e
       0.079757266 0.51684034 -0.29790014 0.47706163
000060 eb 6f 74 3c 85 1a 49 be 9a 41 15 be 71 e8 fd 3d
       0.014919261 -0.19639023 -0.14575806 0.1239785
000070 5d 8e 39 3f 41 6e 64 bd 84 78 0d be 21 e4 6e 3e
       0.72482854 -0.05576921 -0.13815504 0.23329212
000080 87 d1 7c be 42 ee 3a be 03 1b c8 3e 29 4b 9d bf
       -0.24689303 -0.1825495 0.39083108 -1.2288562
000090 4d 73 f2 3e 26 f1 1c be b2 f3 7d 3f f6 27 56 bf
       0.47353593 -0.15326366 0.99199975 -0.83654726
0000a0 8e 92 39 bc 14 20 03 bf 7c 04 f2 3e dc cf 3b bf
       -0.011326445 -0.5122082 0.47269046 -0.73364043
0000b0 fa d2 e0 bd e3 8d ea be e0 fb 96 3e e5 a0 98 bf
       -0.109777406 -0.45811376 0.2948904 -1.1924101
0000c0 16 71 e2 be 8b dd 27 3e 96 09 0c bf 01 78 45 3d
       -0.44226903 0.16393106 -0.54702127 0.048210148
0000d0 be 08 d2 be d7 13 05 bf 04 d7 18 bd 3d 4f a3 3d
       -0.41022295 -0.519834 -0.03731443 0.07974098
0000e0 ad ca d3 bd 4e b4 ce 3e b7 ad 36 3c c8 eb 68 3e
       -0.10341392 0.40371937 0.011149815 0.22746193
0000f0 61 fb 19 3f d5 72 e1 3e 41 fd e4 3e 14 78 7a be
       0.601492 0.44032922 0.44724467 -0.24459869
000100 90 51 30 be 02 af a6 3e 27 e0 4b bd c6 f9 14 3f
       -0.17218614 0.32555395 -0.049774315 0.58193624
000110 8d b1 07 3f 55 a3 b8 3e 1b 7d 33 be cb 3b 94 be
       0.53005296 0.36062112 -0.17528193 -0.28951868
000120 70 54 50 be 13 d9 0a 3f fd 11 27 3f c3 af 47 bf
       -0.2034471 0.5423748 0.6526182 -0.78002566
000130 f5 f2 b1 be 86 73 0c 3e 86 ba 4d be a2 3b 31 3d
       -0.34755674 0.13715944 -0.20090684 0.04326976
000140 17 cd b3 3d c8 4e 12 3f 1b d8 a3 3a 76 12 88 be
       0.08779352 0.5715146 0.0012500318 -0.26576585
000150 a3 4c 16 bf 55 9a 57 3d a0 f3 11 be 39 af 43 3e
       -0.5871069 0.052637417 -0.14253092 0.19109811
000160 43 e9 3b be 55 6b 01 3f 9f 39 6b be a6 69 9e be
       -0.18350701 0.505544 -0.229712 -0.30939978
000170 4d 0a 4b be 0d e4 82 3e e7 26 71 be 5e ef f9 3e
       -0.19828148 0.25564614 -0.23549996 0.48815435
000180 65 11 09 bf 74 99 ca 3e a9 b5 a1 3e e9 04 ed be
       -0.53542167 0.395702 0.31583908 -0.4629281
000190 19 95 d1 be ef 28 f8 3e 3c 1c ae bd df c9 9a bc
       -0.40934065 0.4846873 -0.08501479 -0.018895088
0001a0 a0 04 37 bf a6 3a 14 3f 53 e7 0a bf 64 ad 92 3e
       -0.7149143 0.5790199 -0.5425922 0.28647912
0001b0 cd f6 07 bf 4b 2f 99 be 24 c6 77 be 50 ad e8 3e
       -0.53110963 -0.29918894 -0.24196678 0.45444727
0001c0 98 76 90 bf 49 5f 1f 3f dc af 58 be 41 7f 8e 3d
       -1.1286192 0.6225477 -0.21160835 0.069578655
0001d0 cc eb cb 3e f9 30 e4 be 88 63 06 be d0 18 29 3f
       0.39828336 -0.44568613 -0.13123906 0.66053486
0001e0 7c ff ff bd f1 46 0d 3f d7 f0 61 3e 40 a6 25 3d
       -0.12499902 0.55186373 0.2206453 0.04044175
0001f0 b1 34 f5 be fd 80 fc be 3a ed 64 bc 69 5f f0 be
       -0.47891763 -0.4931716 -0.013972575 -0.46947792
000200 6f bb 59 bf 2b e3 c9 3e 11 e0 7d be 53 62 69 be
       -0.85051626 0.39431128 -0.24792506 -0.22791414
000210 87 64 ab be 7d 94 cb be a8 29 32 bf 9b 6b 94 3e
       -0.33475134 -0.39761725 -0.6959481 0.28988346
000220 c2 f7 87 be 32 75 26 3f 32 5a 2b 3f 9f 7f 88 3e
       -0.26556212 0.65022576 0.669345 0.26659867
000230 d3 c2 3d bd 09 3a 8d be f7 8f 41 3f be 2e ec 3e
       -0.046328377 -0.2758334 0.756103 0.4612941
000240 5f 24 86 3e dd 0d 09 3c e8 a5 a9 3e 98 f4 7d bf
       0.26199624 0.008365122 0.3313439 -0.99201345
000250 ba 24 d1 bd fe 77 4c 3e 48 b3 cf 3e a6 e6 59 3e
       -0.10212083 0.19967648 0.40566468 0.21279392
000260 24 e4 8e 3e 16 72 07 be 46 14 b5 bf d0 eb 83 3e
       0.27908432 -0.13227114 -1.4146812 0.25765848
000270 f6 df e2 be a3 04 1f be 4e 44 96 bf 05 e7 7c 3f
       -0.44311494 -0.15529113 -1.1739595 0.9879001
000280 1d 45 8c 3e fd f2 ee 3d bd 37 2e bf 3d 40 85 bd
       0.2739648 0.1166744 -0.680538 -0.06506393
000290 25 ee 62 bd 61 0d d0 bd 8a 0b 0b bf 9f 69 c8 3f
       -0.055402894 -0.10158802 -0.5431448 1.5657233
0002a0 10 99 cb bd 19 45 ce 3d c3 c5 49 3e c6 ba 56 bc
       -0.09941304 0.10071773 0.19704346 -0.013106054
0002b0 6f a5 38 bf 13 3f ba 3e b6 99 25 bd 6a 4d eb be
       -0.7212743 0.36376247 -0.040429793 -0.459575
0002c0 e2 3b 88 bd 04 d5 17 3f 08 bc 8c bf 6a 95 70 3e
       -0.06652047 0.5930941 -1.0994883 0.23494497
0002d0 76 94 79 bf c8 35 13 be e7 1c 0d bf 85 f2 c2 3e
       -0.9749216 -0.14375985 -0.55122226 0.38075653
0002e0 6b 90 a1 bb 2a fe 45 3f c1 cb 7e bf 55 0c cc 3d
       -0.004930546 0.7734095 -0.99529654 0.0996329
0002f0 ee 7e 95 be 53 e1 90 3e 96 04 52 bf 11 99 1e 3f
       -0.29198402 0.2829691 -0.8203825 0.6195231
000300 88 8f 85 bd 52 c2 b2 3e ad ec 24 3f f3 55 52 bf
       -0.06521517 0.3491388 0.6442364 -0.821624
000310 5a 1f 75 bd fa 55 99 bd 9a 09 d8 3d c4 8d 28 bd
       -0.059844352 -0.07487102 0.10548706 -0.041150823
000320 cd ac 45 be 8e 48 b0 3c e2 ae 23 be 32 8c d6 bd
       -0.193042 0.021518972 -0.15984681 -0.10475959
000330 c9 3c 23 bf e1 1a fc bd f8 11 5f be 83 09 2a 3e
       -0.63764626 -0.12309814 -0.21784198 0.16605191
000340 65 03 3b bf ee 9c 47 3e cc 47 bc be 65 fd 52 bd
       -0.73052055 0.19493458 -0.36773527 -0.051511187
000350 d8 d3 d7 bd 89 a4 3a 3e 7a 1d 58 be 5a 65 63 3e
       -0.10538453 0.18226828 -0.21104994 0.22206631
000360 56 3a 07 3d 5d 1c e8 3e 02 30 b5 3e ca d4 d3 3d
       0.033014618 0.4533414 0.3538819 0.10343321
000370 35 e5 3d 3f 96 d5 b9 3e 09 bf 05 be 2b 25 79 bf
       0.7417787 0.36295766 -0.13061155 -0.9732234
000380 e9 5f 44 bd 75 4a 42 3e 04 e0 95 be a7 e2 8f bf
       -0.04794303 0.18973716 -0.29272473 -1.1241044
000390 84 70 7c be 09 3a 20 be b6 29 25 bf 9c d7 12 bf
       -0.24652296 -0.15647139 -0.6451677 -0.57360244
0003a0 65 8d da 3d 61 6a 75 be 57 81 58 3b 34 95 2d bf
       0.106715 -0.23966362 0.0033036077 -0.6780579
0003b0 35 35 19 3f 2a 3a 04 3e 16 e8 66 bc 54 bd 97 be
       0.5984681 0.12912813 -0.01409342 -0.29636633
0003c0 49 9a 00 bf 63 ca a6 be 21 41 a0 3e a4 e5 17 3e
       -0.5023542 -0.32576284 0.3129969 0.14833695
0003d0 2c 9b 81 bf fe 66 17 3f 7c 63 9e be ee 86 a0 be
       -1.012548 0.5914153 -0.30935276 -0.31352943
0003e0 89 98 e6 be 75 81 16 bf 38 57 c9 be 4a a7 4f be
       -0.4503825 -0.58791286 -0.39324355 -0.2027866
0003f0 db f5 8a be 27 b8 95 3e f0 6c 4c be d1 b2 8a 3d
       -0.27140698 0.2924206 -0.19963431 0.06772388

fc1.bias f4 [128]
000000 bd c0 a7 bd cb 08 ce 3e 11 86 3c 3e 03 cb 72 bf
       -0.08191059 0.40241084 0.18410517 -0.9484102
000010 23 bd ff be 10 fc 63 be 2e ae 68 bf 3c 22 23 bf
       -0.49948987 -0.22264123 -0.9089078 -0.6372411
000020 94 a7 23 bf 00 8e 53 be a4 76 8b be 17 35 6d be
       -0.6392758 -0.20659637 -0.27238953 -0.23164783
000030 05 d4 f4 3e ca 0e 0c be 1f d1 d3 be f5 52 3f bf
       0.47818008 -0.13677517 -0.41370484 -0.7473596
000040 95 21 0e 3e ce ad a6 3e b9 fb 43 3c 7c c3 7d bf
       0.13879998 0.32554477 0.011961871 -0.9912641
000050 db 26 ae be 20 95 b9 be bc b5 a0 be 2e 7b c3 be
       -0.3401402 -0.36246586 -0.31388652 -0.38179916
000060 9f fe a3 be f8 a8 97 3e b6 90 9d be 69 0e d9 bd
       -0.32030198 0.296211 -0.30774468 -0.10598452
000070 1f 15 30 bf f8 46 58 bf 7f bb 11 bf 8d 05 31 bf
       -0.6878223 -0.8448329 -0.5692672 -0.69149095
000080 f4 8f 7a bf 7a 63 36 bf ef 3d 41 bf 1f 34 a7 bc
       -0.97875905 -0.7124554 -0.7548513 -0.020410595
000090 1a bf 69 bf b8 1c 89 be 7a 06 92 bf 54 3e 9c be
       -0.9130722 -0.26779723 -1.1408226 -0.30516303
0000a0 93 12 9e be 1f 1d 97 be 5b 50 98 3c 97 8a 41 bf
       -0.30873546 -0.29514405 0.018593004 -0.75602096
0000b0 72 59 b9 be 64 16 0b bf 4d 26 01 3c e1 cf ab be
       -0.36201054 -0.5433104 0.007882667 -0.33557037
0000c0 2e 45 61 be df 39 f6 bc 8a 2f 47 bf b3 f0 25 3f
       -0.21999046 -0.030056892 -0.77806914 0.648204
0000d0 56 c3 30 3f ea c9 ed be d0 07 65 bf d1 93 50 be
       0.6904806 -0.4644311 -0.89465046 -0.20368887
0000e0 bf f8 6b bf 3c b5 20 3e 57 cd 50 bf fb 61 d5 bd
       -0.9217643 0.15694135 -0.81563324 -0.10419079
0000f0 73 fb 98 be 6c 79 3b bf ab 17 80 be 5c 97 46 bf
       -0.2987934 -0.7323215 -0.25018057 -0.77574706
000100 89 81 9b be a4 7e 81 be e0 56 dc bc 60 b6 e8 be
       -0.30372265 -0.25291932 -0.026896894 -0.4545164
000110 6c 11 8e be af 03 8e be db be 11 bf e9 19 07 3e
       -0.27747667 -0.27737185 -0.5693185 0.13193478
000120 ab 05 29 be f2 62 64 bf f1 79 2e bf f2 78 2d be
       -0.16506068 -0.8921348 -0.6815482 -0.16940668
000130 bb a3 21 bf b7 8d 0d bf 48 73 5f be 5f fb 38 bf
       -0.6314046 -0.55294365 -0.2182132 -0.7225856
000140 82 eb 63 3f b4 12 47 be 8c f0 0c be 32 63 4e bd
       0.8903123 -0.19440728 -0.13763636 -0.05038757
000150 e6 e6 da be 5f fa 8f be 5e 7a c1 be 8e 27 24 bf
       -0.42754287 -0.28120705 -0.3778867 -0.64122856
000160 3e 03 02 bf 93 45 8a be ef ab 95 be 16 49 75 3e
       -0.507862 -0.27006206 -0.29232737 0.23953661
000170 f8 30 4e be 01 6f a0 be 42 0f e0 3e 7b a8 29 bf
       -0.20135868 -0.3133469 0.4376164 -0.66272706
000180 1a 51 b1 be 50 cb 67 bf a9 d5 b3 be af f5 b5 bc
       -0.34632188 -0.90544605 -0.35123947 -0.022211878
000190 bf df e0 3e 27 a8 c8 bd bc db 80 bf 7b 25 46 bf
       0.43920705 -0.097976975 -1.0067058 -0.7740094
0001a0 20 fa dd bd 13 f9 f7 bc 28 fd 80 be 62 6c 1d bf
       -0.10838723 -0.030270135 -0.25193143 -0.61493504
0001b0 83 ae 56 3e 37 1f f3 bd 5b b6 82 3e f9 75 9a be
       0.20965008 -0.11871188 0.2552975 -0.3016813
0001c0 f1 97 2b bf e5 bc c3 be 60 54 2c bf 18 74 2e bf
       -0.6702872 -0.38230053 -0.67316246 -0.68145895
0001d0 01 2b 6d bf 47 ec 2a 3d 80 2b de bd 4c f8 d3 bc
       -0.92643744 0.041729238 -0.10848141 -0.025875233
0001e0 5d 94 20 3e e8 ab ba be 88 dd 5f bf ee b3 61 bf
       0.15681596 -0.3645928 -0.87447405 -0.88165176
0001f0 88 a0 52 3e 13 8f c7 bd cf 18 67 be f7 37 47 3d
       0.2056905 -0.09744086 -0.22568057 0.048637357

bn2.weight f4 [128]
000000 e1 0a 15 3f 6f dd 45 3d 6f 73 c6 3e d6 57 01 3f
       0.58219725 0.04830688 0.38759944 0.5052465
000010 18 13 ab 3e b5 8e ce 3e 14 69 2c 3e d9 8f a9 3e
       0.33413005 0.40343252 0.16836959 0.3311756
000020 56 63 c1 3e ff 57 13 3e 69 52 d8 3e 68 6a 45 be
       0.377711 0.14389037 0.42250374 -0.19278872
000030 4c 6f 18 3f 64 46 3c 3f 0c 48 cf 3d 02 04 84 3f
       0.59544826 0.7354491 0.10121164 1.0313723
000040 84 d6 39 3e 85 7c 29 bf 36 09 d0 3e 29 9d d1 3e
       0.18148237 -0.66205627 0.40632027 0.40940216
000050 b1 d9 9d 3e 00 33 c6 3e e4 d4 60 3f 73 cc 35 be
       0.30830148 0.38710785 0.87824845 -0.17753772
000060 65 4d 96 3e fb 1e e0 3e ff 69 ac 3f e0 ed ee 3e
       0.29355922 0.43773636 1.3469847 0.4666586
000070 f7 cf d9 3e ea eb 4a 3f ce d7 ca 3e 0a 16 1e 3f
       0.42541477 0.79266226 0.3961777 0.6175238
000080 11 92 47 3f 78 b8 56 3f 8b 17 84 3e 8f 18 da 3e
       0.77957255 0.83875227 0.25799212 0.42596862
000090 aa de 01 3f 3c 72 33 3f fa 9c 14 3f d6 6e f5 3e
       0.50730383 0.7009618 0.5805203 0.47936124
0000a0 aa c3 b5 3f 35 04 17 3f 33 0d 8d 3f 88 89 22 3f
       1.4200337 0.58990794 1.1019653 0.63491106
0000b0 13 d7 df 3e 1e 78 60 3f 8f 65 87 3f 13 00 10 3e
       0.43718776 0.87683284 1.0577868 0.14062528
0000c0 9e 30 e6 3e 1a cf 72 3f 7c 8e fc 3e f8 ae 68 3d
       0.44958967 0.9484726 0.49327457 0.05680749
0000d0 af fd 2a 3f 37 07 76 3f aa a8 3f 3e e7 88 dc 3e
       0.6679334 0.9610476 0.18716684 0.43073198
0000e0 4a 4f 6e be 5a 36 c1 3f 95 12 3d 3f 6e 8e 6d 3f
       -0.23272434 1.5094712 0.7385648 0.92795455
0000f0 c7 d5 60 3e 81 6f 11 3f 35 e7 62 3f 4e 40 2e 3f
       0.2195655 0.56810766 0.88634044 0.6806687
000100 39 18 a1 3f 25 7e 25 3e 15 4e 7e 3e bc 6c 61 3f
       1.2585517 0.16161402 0.24834473 0.8805654
000110 5d 1a f9 3e 51 79 8b 3e c1 08 ef 3d b6 a5 3c 3f
       0.48652926 0.27240995 0.116715916 0.73690355
000120 f3 fe 6e 3f de c3 d6 3e 2f fd 93 3f ac e6 b1 3f
       0.9335777 0.4194631 1.156164 1.389852
000130 fa 9b 85 3e bc ee 4d 3f 1c a9 db 3f f0 71 d2 3e
       0.26095563 0.80442405 1.7160983 0.41102552
000140 a5 5a 5e bc 5d 47 9c 3e 2d 72 68 3f 40 3e b9 3e
       -0.013571416 0.30523196 0.9079922 0.36180305
000150 2d d0 4f 3f 9f 15 06 3f e0 16 50 3e 1f cf 0c 3f
       0.81177026 0.5237674 0.20321226 0.5500354
000160 7c 18 f3 3e 24 85 dd 3c a5 41 9e be c6 fe 13 3f
       0.47479618 0.027041025 -0.30909458 0.5781063
000170 0f ac 25 3f 87 fc 97 3e 90 02 4a 3f 0f 6c 19 3f
       0.64715666 0.2968485 0.7891016 0.5993051
000180 81 8c c5 3f a4 ce 45 3f 24 f3 c0 3e 04 a0 6b 3e
       1.5433503 0.77268434 0.37685502 0.2301026
000190 ba 83 e6 3e 13 72 38 bd 9f 6c 7c 3e d8 cd 32 3f
       0.45022374 -0.045030665 0.2465081 0.6984534
0001a0 ca 70 45 3f ca 4b 42 3f 3d 0c 39 3f fb 20 91 3f
       0.7712523 0.75896895 0.722843 1.133819
0001b0 d6 87 31 3f fc 66 59 3f b8 37 86 3e 56 1c 3a 3f
       0.69347894 0.84922767 0.26214385 0.7269949
0001c0 b2 8e f9 3e 5e d1 b8 3e 95 fc 0a 3f c5 b1 23 3f
       0.4874168 0.36097234 0.5429166 0.6394313
0001d0 64 96 50 3f 52 a6 01 3f c2 ad c4 3e 96 27 e4 3d
       0.8147948 0.5064441 0.38413817 0.11140363
0001e0 89 ac 53 3f 5f 40 69 3f 5a d5 27 3f 8a 9c 43 3f
       0.8268514 0.9111385 0.65559924 0.76410735
0001f0 f0 9d 42 be 43 0d 7a 3f d9 1b 44 3f da 08 95 3f
       -0.19005561 0.97676486 0.7660499 1.1643326

bn2.bias f4 [128]
000000 b1 79 13 3f a3 d0 26 3f dd ee da 3d 20 8e 8f 3e
       0.5760756 0.65162104 0.10690091 0.2803812
000010 5d 0b 61 be 49 37 54 bd bc 95 02 3f 09 9a a4 3e
       -0.21976991 -0.051810537 0.51009727 0.3214877
000020 3d dc 36 3f 70 22 7f 3f f7 ff 13 3f 33 a6 13 bf
       0.71429807 0.9966192 0.57812446 -0.57675475
000030 df 59 55 3f d2 5c c8 3e c6 ae 1d bf 89 ae 7c 3f
       0.8334026 0.39133316 -0.6159481 0.9870382
000040 06 b9 51 bb 9b 22 ee be d2 64 00 3f e2 82 36 bd
       -0.0032001152 -0.46510777 0.5015384 -0.044558413
000050 8e 84 bc 3e b7 4e 15 be cf 5b 70 3f 86 d7 b3 bd
       0.3681988 -0.14580809 0.9389009 -0.08781342
000060 f4 83 2e be b7 2d 3b 3e e7 73 41 3f 39 51 77 bd
       -0.17042524 0.18279158 0.7556748 -0.060380194
000070 0d ea 8a 3d da e2 40 bd 31 90 0a be 1a 1d e2 bc
       0.06782923 -0.047091343 -0.13531567 -0.027601767
000080 96 83 ee 3e 1d 9e b8 3d a4 5c 0c be 47 85 28 3f
       0.46584767 0.09014533 -0.13707215 0.65828365
000090 a6 34 49 3d ae 38 c6 3e 8d 4e 91 3d 0c 60 1b bc
       0.049122475 0.38715118 0.070950605 -0.009483349
0000a0 06 4d 27 3f d3 da ca bc 2b 3f 74 3e 20 ea 31 3f
       0.65351903 -0.024762547 0.23852222 0.6949787
0000b0 9d ec 88 be 46 81 f7 3e 47 58 0d 3f 7c 9b c9 3b
       -0.26743022 0.48340815 0.55212826 0.0061525684
0000c0 66 54 a3 be 11 c0 73 3c 12 0e 42 3e 64 36 70 be
       -0.31900328 0.014877335 0.1895068 -0.23458248
0000d0 d7 a7 ff 3d fc 14 23 3e 1d 48 22 bd 52 ef 07 bf
       0.12483185 0.15925974 -0.039619554 -0.5309955
0000e0 ea 20 03 bf 92 ca bf 3e 32 ae 01 3f db 6f 37 3f
       -0.512221 0.37459236 0.50656426 0.7165505
0000f0 58 ee 1b bd df a3 f3 3e 88 41 8f 3e 09 bf 0b 3f
       -0.0380691 0.4758596 0.27979684 0.5458837
000100 75 f7 1d 3d 33 c1 47 be 1b 0c 0a 3f 31 66 e8 bc
       0.03856607 -0.19507293 0.5392472 -0.028369041
000110 9b 07 81 bb 10 5b 14 bd bc 24 02 3f a7 bf 6f be
       -0.003937674 -0.036219656 0.508373 -0.23412953
000120 be 38 37 3e 93 e2 b3 3e 0e be 2f 3f f5 2d ee 3e
       0.17892739 0.351338 0.68649375 0.46519437
000130 a9 50 2f 3f ff 0c aa 3e 41 b4 67 3f 00 c1 80 3e
       0.6848245 0.3321304 0.9050942 0.25147247
000140 90 be d5 be a7 d0 db bd 62 44 ac 3d d3 0c c2 bd
       -0.4174695 -0.10733157 0.084114805 -0.09475102
000150 5e 5c 46 3e d6 fd ca 3e a1 67 0f 3f c9 ea 35 3f
       0.19371173 0.39646786 0.560175 0.7106138
000160 e8 dd 25 3e 2b af a5 3d 46 dd d0 3e 56 ba 3a 3f
       0.16197932 0.08090051 0.40793818 0.72940576
000170 f5 65 cd 3d 0e 94 5c bc e7 58 20 3f cb 7f be 3d
       0.100292124 -0.013463033 0.62635654 0.09301718
000180 da 97 a7 3e 8f df 78 3e c3 4b 7a 3f ea 96 88 3d
       0.3273304 0.24304031 0.97771853 0.066694096
000190 85 0b b7 3e 59 45 1c 3f 3a 94 d3 bd 17 50 95 bc
       0.35750976 0.61043316 -0.10331006 -0.018226666
0001a0 76 c9 20 3f b4 b2 2e 3f d4 68 7f bd fa d3 a0 3e
       0.62807405 0.6824143 -0.06235583 0.31411725
0001b0 72 65 1b 3f 04 3d 1c 3f 1f 66 be be e8 e0 eb 3d
       0.6070167 0.610306 -0.37187287 0.11517507
0001c0 44 04 4e 3e f3 eb 9d be 96 0c 89 bd 59 9d a9 3d
       0.20118815 -0.30844077 -0.06691854 0.08281965
0001d0 ea 5d 8e 3e ef 8b 62 3f e5 cf 67 be 78 06 b2 3d
       0.27806026 0.8849477 -0.22637899 0.0869264
0001e0 de d6 a8 3e f5 95 eb 3b 72 58 d4 bc cb 3c cd 3e
       0.3297643 0.007189507 -0.02592108 0.40085444
0001f0 da 42 da be 14 85 37 3f d2 80 ba 3e 19 dc 36 3f
       -0.4262913 0.71687436 0.36426407 0.7142959

bn2.running_mean f4 [128]
000000 71 7a c2 3e 86 7d 03 40 38 41 d1 3e 04 00 00 00
       0.3798404 2.0545363 0.4087007 6e-45
000010 04 00 00 00 5e 9f 82 3d 44 5a 9d 0e 36 53 cd 39
       6e-45 0.06378053 3.879041e-30 0.00039162644
000020 04 00 00 00 53 a6 b0 3f 01 26 f6 3e 55 e1 d0 3e
       6e-45 1.3800758 0.4807587 0.40796915
000030 87 94 07 40 d2 78 ca 3f 04 00 00 00 39 5e 6a 3c
       2.1184404 1.5818121 6e-45 0.014304691
000040 1f b0 d5 3d 90 52 4b 3f d9 cc 01 3e 04 00 00 00
       0.10433983 0.79422855 0.126758 6e-45
000050 84 c5 19 3e 04 00 00 00 d5 d9 0c 3f 8c 1c d6 3c
       0.15016752 6e-45 0.55019885 0.02613666
000060 5d b2 0b 3f 63 53 92 3e 73 3b ea 3e 04 00 00 00
       0.54569036 0.28579244 0.4574848 6e-45
000070 22 64 77 3d 04 00 00 00 48 d0 1e 3d 04 00 00 00
       0.06039823 6e-45 0.03877285 6e-45
000080 62 07 ef 3c 75 d5 3c 3e 04 00 00 00 be 6d 2c 3f
       0.029178325 0.18440802 6e-45 0.67354953
000090 44 a4 97 3d 41 1d e8 3d ad 5c 8c 38 04 00 00 00
       0.07404378 0.11333705 6.6929824e-05 6e-45
0000a0 62 ea 09 3e 04 00 00 00 79 a3 c5 3e 04 00 00 00
       0.13468316 6e-45 0.38601282 6e-45
0000b0 04 00 00 00 13 9a 0d 40 da 45 1a 3f 04 00 00 00
       6e-45 2.212529 0.60262835 6e-45
0000c0 fb ab 3f 3f b8 ec 14 3e 66 2c ee 3a 1c 5c a3 3f
       0.74871796 0.14543426 0.0018171191 1.2762485
0000d0 20 83 1b 40 80 b7 86 3d 04 00 00 00 04 00 00 00
       2.4298782 0.065779686 6e-45 6e-45
0000e0 26 03 73 3e 36 aa 0a 3e 33 f4 15 3d 46 df bf 3e
       0.2373167 0.13541493 0.03660984 0.37475032
0000f0 04 00 00 00 e8 a0 81 3e 10 5b 66 3d 24 87 b0 3a
       6e-45 0.25318074 0.056239188 0.001346801
000100 0d 55 6c 3d 04 00 00 00 fd 56 19 3f 04 00 00 00
       0.0576983 6e-45 0.5989836 6e-45
000110 04 00 00 00 04 00 00 00 43 ef aa 3f c0 9f bd 3e
       6e-45 6e-45 1.3354267 0.37035942
000120 2f f3 16 3f 9c 1e f0 39 87 a9 86 3f 35 16 35 3e
       0.5896482 0.00045799173 1.0520486 0.17684253
000130 a1 70 e1 3d 3f 24 d4 3d 0f d4 bc 3e 04 00 00 00
       0.110078104 0.10358476 0.36880538 6e-45
000140 e2 e0 1a 40 62 3e 60 3b 95 c6 f5 3d ab 62 58 3f
       2.4199758 0.003421687 0.12000767 0.84525555
000150 72 99 1d 3e 04 00 00 00 04 00 00 00 3b a0 85 3e
       0.15390566 6e-45 6e-45 0.2609881
000160 04 00 00 00 72 ae 77 3e 30 10 da 3f fa f9 ac 3f
       6e-45 0.2418764 1.703619 1.3513787
000170 9c 5b 16 3e 04 00 00 00 97 7d 20 40 8d 31 8b 3d
       0.14683384 6e-45 2.5076654 0.067965604
000180 cd 40 6f 3e 04 00 00 00 d2 f6 53 3f dd 93 12 3f
       0.23364563 6e-45 0.8279849 0.5725687
000190 60 1b e5 3f 28 28 0e 40 04 00 00 00 df 13 e2 39
       1.7898979 2.221201 6e-45 0.00043120884
0001a0 be 20 07 3f b6 90 6d 3d 4f 15 35 3f 2f 59 f7 3c
       0.52784336 0.057999335 0.7073564 0.030193893
0001b0 c2 24 23 3f 4f f3 0d 3e b6 e0 5e 3d e1 d1 91 3e
       0.6372796 0.13862346 0.05441352 0.28480437
0001c0 04 00 00 00 04 00 00 00 04 00 00 00 3a d5 08 3b
       6e-45 6e-45 6e-45 0.0020879046
0001d0 01 12 a9 3d 38 03 02 40 97 78 0d 3f ec 43 1c 3f
       0.08255387 2.0314465 0.5526213 0.6104114
0001e0 c2 bb 11 3f 04 00 00 00 95 30 08 38 0e 77 4a 3d
       0.5692712 6e-45 3.2470172e-05 0.049429946
0001f0 8c 98 05 3f 48 10 74 3e f6 48 9b 3e 28 f9 5d 3f
       0.52185893 0.23834336 0.30329102 0.8670831

bn2.running_var f4 [128]
000000 74 86 b2 3e 36 24 19 40 df e3 8f 3e 04 00 00 00
       0.34868205 2.3928351 0.2810354 6e-45
000010 04 00 00 00 cf 20 83 3d a4 cc a8 08 83 b0 db 38
       6e-45 0.06402742 1.0159243e-33 0.000104756116
000020 04 00 00 00 92 fe ee 3f 72 33 1e 3f 72 87 f6 3e
       6e-45 1.8671439 0.6179725 0.48150212
000030 fc 09 7a 3f d0 da 8f 3f 04 00 00 00 70 5f 47 3c
       0.97671485 1.1238651 6e-45 0.01216875
000040 5f f8 13 3e d0 f3 e0 3e c7 66 f5 3d 04 00 00 00
       0.14450215 0.43936014 0.11982494 6e-45
000050 03 7d 4d 3e 04 00 00 00 f1 49 12 3f e0 aa 42 3c
       0.2006722 6e-45 0.57144076 0.01188156
000060 29 5f 8c 3e c6 ae b8 3e 01 ae c4 3e 04 00 00 00
       0.2741635 0.36070842 0.38414004 6e-45
000070 0e c2 80 3d 04 00 00 00 9f 92 c3 3c 04 00 00 00
       0.06287013 6e-45 0.023873625 6e-45
000080 91 40 03 3d f8 42 fa 3d 04 00 00 00 ba bb 7c 3e
       0.032043997 0.122198045 6e-45 0.24680987
000090 40 03 10 3d f2 4a ca 3d 14 d7 96 37 04 00 00 00
       0.03515935 0.09877576 1.7981547e-05 6e-45
0000a0 4d bc 00 3e 04 00 00 00 38 72 c8 3e 04 00 00 00
       0.12571831 6e-45 0.39149642 6e-45
0000b0 04 00 00 00 72 cf 75 40 f0 e7 35 3f 04 00 00 00
       6e-45 3.8407865 0.71057034 6e-45
0000c0 72 41 4e 3f 8d c2 5e 3e c0 08 33 3a 23 79 7c 3f
       0.8056861 0.21753903 0.0006829612 0.9862234
0000d0 93 0f e6 3f 38 6f 96 3d 04 00 00 00 04 00 00 00
       1.7973503 0.07345432 6e-45 6e-45
0000e0 47 15 27 3e b0 f1 6c 3e d3 72 32 3d e2 6c 86 3e
       0.1631671 0.23139071 0.043566536 0.26254946
0000f0 04 00 00 00 6e 86 14 3e 26 a6 74 3d ec fd 61 3a
       6e-45 0.14504406 0.059728764 0.0008620906
000100 ba 46 84 3d 04 00 00 00 01 3d 0a 3f 04 00 00 00
       0.064588025 6e-45 0.53999335 6e-45
000110 04 00 00 00 04 00 00 00 75 c0 a3 3f bd f0 d7 3e
       6e-45 6e-45 1.2793108 0.42175856
000120 c3 7e db 3e 6d d0 1f 39 55 3f 98 3f 04 3d d5 3d
       0.4287015 0.00015241066 1.1894327 0.104120284
000130 81 ac d0 3d 2d 97 33 3e e5 b8 15 3f 04 00 00 00
       0.101891525 0.17538138 0.5848525 6e-45
000140 a5 79 c5 3f fb 0e 07 3b 4a f9 51 3e f4 e1 4b 3f
       1.5427748 0.0020608294 0.20505252 0.7964165
000150 cd ae 69 3e 04 00 00 00 04 00 00 00 5f e1 7d 3e
       0.22820587 6e-45 6e-45 0.24793003
000160 04 00 00 00 3a 0e 8b 3e 87 a0 dd 3f bf ca 75 3f
       6e-45 0.27159292 1.7314614 0.9601249
000170 80 94 1f 3e 04 00 00 00 b7 a7 81 40 5a 3a 7e 3d
       0.15583992 6e-45 4.051723 0.062067367
000180 dc 4e 20 3e 04 00 00 00 c8 7f 37 3f 99 de cb 3e
       0.15655082 6e-45 0.71679354 0.39818266
000190 f2 24 b2 3f 62 85 98 3f 04 00 00 00 be 76 b2 38
       1.3917525 1.1915705 6e-45 8.509819e-05
0001a0 f0 64 0f 3f 76 44 95 3d 4d 5d 42 3f a5 fc 9b 3c
       0.56013393 0.072884485 0.75923616 0.019041369
0001b0 8e d8 1c 3f 8b 14 e8 3d 56 02 f7 3c 58 9f c9 3e
       0.61267936 0.11332043 0.030152481 0.39379382
0001c0 04 00 00 00 04 00 00 00 04 00 00 00 ad a3 fb 3a
       6e-45 6e-45 6e-45 0.001919856
0001d0 67 1a 69 3d b0 d3 ad 3f 34 19 1b 3f c0 e2 8a 3f
       0.056909945 1.3580227 0.6058533 1.0850449
0001e0 60 b6 04 3f 04 00 00 00 cf 78 24 37 e1 3c 3e 3d
       0.5184078 6e-45 9.80329e-06 0.046444777
0001f0 12 74 fa 3e d7 4d ba 3e 9e 5a a6 3e 97 63 67 3f
       0.4891668 0.36387512 0.3249101 0.9038634

fc2.weight f4 [128, 128]
000000 8a df 34 3e dd 24 0b be c9 cb df 3e 68 1b 48 be
       0.17663398 -0.13588281 0.43710163 -0.19541705
000010 50 8c 96 3e 2d 8a 82 3e 06 6d f7 3d 20 bc fe be
       0.29403925 0.25496045 0.120813414 -0.49752903
000020 22 e4 e3 be 61 2a 3c bf 01 40 e2 3d 59 74 0e 3f
       -0.4450999 -0.73502165 0.11047364 0.5564628
000030 3b 43 b3 be 07 cb cd 3e 32 1f ce 3e 08 cf 66 be
       -0.3501223 0.4019396 0.40258175 -0.22539914
000040 d7 8f 5d be bc 2a 58 be b8 81 60 3d ea 2b 0b 3c
       -0.21636902 -0.21110052 0.05481121 0.008494357
000050 e8 1e 1a be 26 7a 4c 3d f1 7c 71 be c4 1e c8 bd
       -0.15050852 0.049921177 -0.23582818 -0.09771493
000060 b2 d4 42 3c 49 09 4b bb cf dc 4d bf b0 d7 06 be
       0.011891531 -0.0030980876 -0.8041505 -0.13168216
000070 91 5d 98 be 02 2b c7 3c 98 50 5c 3e 20 bc 10 be
       -0.29758886 0.0243125 0.21515119 -0.14134264
000080 15 51 7f 3e 15 ee d3 be 99 96 00 bf 93 e8 3a be
       0.24933274 -0.4139258 -0.50229794 -0.18252783
000090 b2 da 94 3e 3b 8e 13 3d d0 c9 b3 3d cf 8c 66 3e
       0.290731 0.036024313 0.08778727 0.22514652
0000a0 fc 01 d5 be da a3 7c 3e b5 3e 2c be 89 e5 f1 be
       -0.41603076 0.2467188 -0.16820796 -0.47245434
0000b0 4c 14 04 3e 73 09 09 bf de 20 7e be 99 bf cc 3e
       0.12898368 -0.53530043 -0.24817225 0.39989927
0000c0 32 4a ce 3e 79 20 0b be fb d9 f8 bd 58 68 91 3e
       0.40290982 -0.13586606 -0.121509515 0.2839992
0000d0 75 91 0c 3e f0 93 97 bc c4 c7 5b be 4a 28 13 3f
       0.13727362 -0.01850316 -0.21462923 0.5748335
0000e0 58 3b 08 3f 1d 6c 6c bd a5 e3 0f be 5f 91 83 be
       0.5321555 -0.057720292 -0.14051683 -0.25696847
0000f0 d9 70 3d be 51 54 1d 3e 61 4c 3e be b6 ed b3 be
       -0.18500079 0.15364195 -0.18583824 -0.35142297
000100 d5 7d 2e 3d 44 84 b6 3e 67 fe 48 bd 83 a7 9a be
       0.04260047 0.35647786 -0.049070742 -0.30205926
000110 06 db e0 3d a8 fd ce be 32 6b 4f 3e e8 a0 b8 3e
       0.109792754 -0.404279 0.20255736 0.36060262
000120 ad 75 cb 3e 5d fc 27 be 25 ae c5 be e7 74 79 be
       0.39738217 -0.16404863 -0.38609424 -0.24361001
000130 ba e6 54 be ad 2f 6a 3e 66 c0 c4 bd e2 90 db be
       -0.2079114 0.2286975 -0.096070096 -0.42883974
000140 e1 9c b6 3e d2 ae 8a 3e d0 ae 99 be 54 fb c5 3e
       0.35666564 0.27086502 -0.30016184 0.3866831
000150 b9 8d b7 bd f2 71 07 bf 5d 7d e4 be c4 23 7f be
       -0.08962578 -0.5290824 -0.44626895 -0.24915987
000160 ec 53 46 bb f6 5d 2c be 32 90 01 bf a5 4b bd be
       -0.0030262424 -0.16832718 -0.5061065 -0.36971775
000170 64 71 da 3c 08 a9 e3 3c 4d 2e 3a bf c2 ce 13 bf
       0.026665397 0.027790561 -0.727269 -0.5773736
000180 a6 93 c1 bc 7b 7e e2 3d 51 31 5e be 54 b2 cf be
       -0.023629975 0.110592805 -0.216985 -0.4056574
000190 69 19 1e be f8 52 0c be 89 e4 32 3e f7 94 14 3d
       -0.1543938 -0.13703525 0.17469992 0.036274876
0001a0 f0 c8 ee be b2 6e 7a be d0 e2 c9 3e 40 fa dc be
       -0.46637678 -0.2445629 0.39430857 -0.43159676
0001b0 1a 43 1d be 93 2f 90 be e2 00 29 bd 50 fa a4 be
       -0.15357628 -0.28161296 -0.041260608 -0.32222223
0001c0 b8 12 ab 3e 89 08 12 be 95 4d 5c be df ce 80 be
       0.3341272 -0.14261068 -0.2151397 -0.2515783
0001d0 14 e6 ec be 8d 6d 96 be 52 1d 17 3e 4d 79 98 be
       -0.46269286 -0.29380456 0.14757279 -0.29780045
0001e0 a4 ce 12 3b 15 1e d6 3c b6 98 46 be 13 ce 1f 3e
       0.0022401 0.026137391 -0.19394192 0.15605955
0001f0 c4 9c 23 be e8 ae f5 be 4a a6 7f be 27 ff cb be
       -0.1597777 -0.47985005 -0.24965778 -0.39843103
000200 10 08 65 be f1 44 b7 ba d1 ca fa be 2c fa b4 be
       -0.22366357 -0.0013982338 -0.48982862 -0.35347116
000210 e2 26 56 3e 28 2a fc 3c 0b 24 4b bf fb 73 e0 bd
       0.2091327 0.03078182 -0.7935187 -0.109596215
000220 20 cd b0 bd fa 97 90 be b4 86 7f be 57 b2 f1 3e
       -0.086328745 -0.2824095 -0.24953729 0.47206375
000230 cc da de 3c 10 d9 c0 3d f5 8d 53 3e d5 2d d6 be
       0.02720394 0.094164014 0.20659621 -0.41831842
000240 75 c4 d6 bd 47 34 96 be a1 8c 58 be be 15 a9 bd
       -0.1048669 -0.2933676 -0.21147396 -0.082561
000250 52 e1 6d be 02 66 1c bd e8 52 35 be 73 16 c0 bd
       -0.23230484 -0.03818322 -0.17707407 -0.09379282
000260 ee 5c 31 3a 30 c4 01 3e 5f 01 1d bf e2 d5 4d 3e
       0.0006765862 0.12672496 -0.6133022 0.20101121
000270 dc 6e 97 bc 7c c5 27 bf 42 db ba bd 51 41 4e be
       -0.018485479 -0.6553571 -0.09123851 -0.20142104
000280 50 fe 6d be e3 6e 18 be 23 df 31 3e a7 3b 3f bd
       -0.23241544 -0.1488605 0.17370276 -0.04668775
000290 99 c8 3c be 8b 2c 25 be 44 c5 a4 3e d0 e6 5a 3e
       -0.18435897 -0.16130273 0.32181752 0.2137711
0002a0 54 75 4e 3c 49 31 46 3e 3b e9 26 3e ed 96 26 be
       0.012601215 0.19354738 0.16299908 -0.16268511
0002b0 c8 6c 5e 3d bd c1 06 be df 43 2b be 43 98 c5 3e
       0.05430296 -0.13159843 -0.1672511 0.3859273
0002c0 d0 a2 6c 3e a9 03 95 3d 04 02 1d be 2c 81 16 be
       0.23108983 0.07276089 -0.153328 -0.14697713
0002d0 08 2f 1b be 73 90 a6 3c 56 1a eb 3d a6 c8 70 3e
       -0.1515466 0.02033255 0.114796326 0.23514041
0002e0 bc 63 e5 3e 48 4d 29 be 50 77 da be 6d 7c 18 3d
       0.44802654 -0.16533387 -0.42669153 0.037228037
0002f0 26 76 91 be 85 d0 d1 bc 48 4c 29 be 0c 99 83 be
       -0.28410453 -0.025612125 -0.16533005 -0.25702703
000300 ad 22 dc 3d dd da 75 3e 40 d9 92 be ed d5 a3 be
       0.107488014 0.24009271 -0.28681374 -0.3199915
000310 a1 89 59 3d 95 e0 81 be 48 54 dd be 5a a6 9e 3d
       0.05310977 -0.25366655 -0.43228364 0.07746573
000320 22 25 2e 3d ae 9d 56 be c5 bb 48 3d 4d 15 72 3c
       0.04251588 -0.20958588 0.049007196 0.014775586
000330 f1 ee c8 be 0e f9 cb bd 0b 5d 7f be a2 24 16 3d
       -0.39244798 -0.09959613 -0.24937837 0.03665603
000340 73 fb 4a 3e 7a ef 83 be 84 ce 03 be 3f 82 77 bd
       0.19822483 -0.25768644 -0.12871748 -0.060426947
000350 b5 41 bd be c7 4d cc be 34 de b2 be 70 d4 f1 bd
       -0.36964193 -0.3990309 -0.34935153 -0.11808097
000360 9e 3c 83 be 0b 66 e5 3d ad 09 a8 be 64 97 44 3c
       -0.25632185 0.11201104 -0.32819882 0.011998985
000370 7e ad 0b be 4d 2d c9 3d cf e6 92 be 6f 3e 5c bd
       -0.13640401 0.098230936 -0.28691718 -0.05377048
000380 0e 0f 5f 3d be 15 96 be 8e e2 2d bf 5b 08 7b 3d
       0.054457717 -0.29313463 -0.6792382 0.061287265
000390 f6 7a 85 be 1f 28 f0 be 70 58 4f bd 85 d8 c6 bd
       -0.26070374 -0.4690561 -0.05062145 -0.097092666
0003a0 da f0 33 bd a9 7c 0f bf 4b 30 ea bc a8 f6 0f 3c
       -0.043930866 -0.5604959 -0.028587481 0.008786835
0003b0 3e 7e 1d 3d f2 93 08 bc 40 1e fb bd f0 91 ba 3c
       0.038450472 -0.008336054 -0.12261629 0.022774667
0003c0 70 8b 21 be 1e 4f a6 3d 20 46 3c 3e 0e 7e a2 3d
       -0.15775847 0.08120559 0.18386126 0.07934199
0003d0 c3 cb d7 bd b0 06 21 bc 4d 88 f5 bd 1c 28 57 be
       -0.10536911 -0.009828255 -0.11988888 -0.21011394
0003e0 7f 2a ae bd 32 69 db bd 10 0f 49 be c9 d1 7f 3c
       -0.08504199 -0.10713424 -0.19634652 0.0156139815
0003f0 51 f8 fa 3d fa f3 78 be d6 89 81 3c d5 14 bf be
       0.12254394 -0.2431182 0.015812796 -0.3732058

fc2.bias f4 [128]
000000 43 9b ef be 4b 5e 98 be 7f 89 97 be 4c 42 ba be
       -0.46798143 -0.2975944 -0.2959709 -0.36378706
000010 0a ee cb be 4a ed 45 be 0e fb 56 bf 1d e1 23 3f
       -0.39830047 -0.193288 -0.8397683 0.6401537
000020 7f 09 88 be ff 52 74 be 19 9f a2 be 72 40 6a be
       -0.26569745 -0.23859785 -0.31762007 -0.22876146
000030 59 ce 7e 3e 6c 33 91 bb 87 eb a1 be 5a ed f0 bd
       0.24883403 -0.004431179 -0.31625006 -0.11764021
000040 ca a0 8a bf 1e 6b fd bd 4a 29 5b be 1e cf b9 be
       -1.0830319 -0.123739466 -0.2140247 -0.3629083
000050 37 05 cb bd c2 61 c2 be 69 85 96 3e ef 81 e7 be
       -0.09913104 -0.37965208 0.2939866 -0.4521632
000060 48 11 af be b0 0a d7 be 61 d9 4b bf 4d bf bd bd
       -0.34192872 -0.4200034 -0.7962857 -0.09265003
000070 fe 39 1f bf ba 1d c4 be cb ca 7b be 54 ee 08 3c
       -0.62197864 -0.3830393 -0.24589078 0.008357603
000080 4b 2e 96 be 1a f9 b0 be df f2 b5 be f5 52 0b 3f
       -0.29332194 -0.3456505 -0.35536858 0.5442346
000090 dd a7 06 bf 59 bf a4 be 98 3c e6 be b0 8f 6c be
       -0.5259989 -0.32177237 -0.44968104 -0.23101687
0000a0 27 31 5a be 2a c1 91 be b2 99 8a be 61 ee c1 be
       -0.21307813 -0.28467685 -0.27070385 -0.3787718
0000b0 2a 04 ad 3e c9 cf b9 be 98 2b b7 be 40 3e 54 be
       0.3379224 -0.3629134 -0.35775447 -0.20726871
0000c0 19 7d 96 be 3d f9 05 bf 96 03 4a be 7c 8b 4b 3d
       -0.29392317 -0.5233343 -0.1972793 0.04969357
0000d0 0b c6 a9 be 6c 60 cc be 59 eb 89 be ba b4 9b 3e
       -0.33158907 -0.39917314 -0.2693737 0.3041132
0000e0 b5 ea 95 be b6 2b da be e2 69 3d be 8d 9d 4b 3c
       -0.2928063 -0.42611474 -0.18497422 0.0124277
0000f0 74 08 84 be 8f 23 4b 3e 5d 74 1b bf c8 49 5c be
       -0.257877 0.19837783 -0.6072443 -0.2151252
000100 d3 5f 75 be cd eb 8c be 90 b7 21 bf 66 23 2a be
       -0.23962335 -0.27523652 -0.6317072 -0.16615066
000110 11 50 6e be 5b a7 1e be a0 56 b2 be 0a 55 88 be
       -0.2327273 -0.15493529 -0.34831715 -0.2662738
000120 ff 40 c4 be 2c bb d2 be 1c 27 e2 be ce 3a 0a bf
       -0.38330838 -0.41158426 -0.44170463 -0.5399598
000130 61 f1 90 be 74 80 b3 be 69 05 01 bf fe f0 d8 be
       -0.28309157 -0.3505894 -0.5039888 -0.42371362
000140 37 c9 fd bd e7 67 2a bf a6 03 85 be 3a fa b4 3f
       -0.12391894 -0.6656479 -0.25979346 1.4138863
000150 42 71 ad be a9 f2 dc be 39 bd f4 be fa a1 0f bf
       -0.3387547 -0.43153885 -0.47800615 -0.5610653
000160 51 14 9d 3e e4 f0 1e bf 23 98 f6 bd 83 3d fe be
       0.30679563 -0.6208632 -0.120407365 -0.49656305
000170 6e ed 47 bf 04 39 a9 be be 19 6d bf c7 d0 d9 be
       -0.78096664 -0.33051312 -0.92617404 -0.42542097
000180 ce b9 af be 8e ab 03 bf 48 c1 e1 be 2a 02 ca be
       -0.34321445 -0.51433647 -0.44092774 -0.39454776
000190 e2 9e a1 be bc 61 c7 be b5 25 58 be 93 0c b5 be
       -0.3156653 -0.38941753 -0.21108134 -0.35361156
0001a0 1e 1b 42 be 70 5e 89 be 4c 00 c8 3e ce 00 9f be
       -0.18955657 -0.26829863 0.39062726 -0.310553
0001b0 82 6c 55 bf 7c 25 95 be 8e c1 dd 3e 2e 7f 7c be
       -0.83368695 -0.2913016 0.43311733 -0.2465789
0001c0 da 76 84 be 83 25 05 bf ec ee 42 bc fb 3f 03 be
       -0.25871927 -0.52010363 -0.011897784 -0.12817375
0001d0 eb f0 d3 be 1d 91 0a bf 92 77 db be f4 5c b8 be
       -0.41394743 -0.54127675 -0.42864662 -0.36008418
0001e0 66 ca bf be e8 ea 4e be 5f d4 2e be 23 9f aa be
       -0.37459105 -0.20206797 -0.170732 -0.33324537
0001f0 8e af ff be 1c 23 93 be 18 da db be bd 2f f6 be
       -0.49938625 -0.28737724 -0.4293983 -0.48083296

bn3.weight f4 [128]
000000 21 6d bc 3f 82 ea 7c 3f 70 71 5a 3f e8 a5 c6 3f
       1.4720803 0.9879533 0.8532934 1.551938
000010 c1 38 da 3f 16 1a 40 3f b2 9a 42 3f 69 df 97 3f
       1.704857 0.75039804 0.76017296 1.1865054
000020 47 c1 4a 3f 7c 99 82 3f c8 1e a2 3f cf c3 b5 3f
       0.7920117 1.020309 1.2665644 1.4200381
000030 30 56 aa 3f d2 a4 e5 3f d2 39 dd 3f 85 93 f7 3f
       1.3307552 1.7940924 1.728327 1.9341894
000040 2a 76 17 40 cb 83 32 3f e4 41 ec 3f 10 20 c7 3f
       2.3665872 0.6973235 1.8457608 1.555666
000050 2e 4d f1 3f b9 6a 06 40 3b 33 a9 3f f3 91 ed 3e
       1.8851678 2.1002638 1.3218759 0.46400413
000060 c7 a0 87 3f 2c b4 e6 3f 83 7d 3b 3f d6 33 e0 3f
       1.059594 1.8023734 0.7323839 1.7515819
000070 73 57 ea 3f 02 25 33 3f 09 cb e4 3e 96 16 02 40
       1.8307937 0.69978344 0.44686154 2.0326285
000080 e2 21 c9 3f 47 ae 67 3e 53 32 c5 3f 68 d2 81 3f
       1.5713465 0.22625075 1.5405983 1.0142336
000090 2f e1 c1 3f 93 af a7 3f 62 72 ab 3f 41 87 4d 3f
       1.5146846 1.3100456 1.3394282 0.80284506
0000a0 5e a5 e0 3e 73 1d 96 3f b1 c6 bb 3f f0 77 5d 3f
       0.43876165 1.1727737 1.4670011 0.86511135
0000b0 19 14 f3 3f e8 7c 2b 3f 0b 67 80 3f 0c 4e 0f 3f
       1.8990508 0.66987467 1.0031446 0.55978465
0000c0 e8 52 b0 3f ae 96 a1 3f 33 af 88 3f f2 08 e9 3f
       1.3775301 1.2624109 1.0678467 1.8205855
0000d0 2d 2c 94 3f 82 9f d2 3f 19 2b 44 3f 98 7a 02 40
       1.1575981 1.6454928 0.7662826 2.0387325
0000e0 48 fc 63 3f 39 1e cb 3f 6e 88 41 3f d5 ab b6 3f
       0.89056826 1.5868598 0.755988 1.4271189
0000f0 b7 2c 65 3f fc c4 fc 3f b7 f8 fe 3f 76 e7 52 3f
       0.89521354 1.9747615 1.9919652 0.8238443
000100 0c be 09 3f 79 59 90 3f 63 c1 e1 3f bd e9 80 3f
       0.53805614 1.1277305 1.7637142 1.0071331
000110 73 02 84 3f fb 67 07 3f 39 3d d0 3f 52 13 04 40
       1.0313247 0.52893037 1.6268684 2.0636792
000120 4a 5f e4 3f 53 19 5f 3f 10 0d ba 3e 47 39 8e bf
       1.784158 0.87148017 0.3633809 -1.111123
000130 e0 c1 95 3f cb cb 94 3e 40 d2 bc 3f 9f cf ff 3f
       1.1699791 0.29061732 1.4751663 1.9985236
000140 f9 22 f8 3f 4b c5 d0 3f 92 61 05 3f 3a 43 21 3f
       1.9385673 1.6310209 0.52102005 0.62993205
000150 da b5 cc 3f 65 0c d0 3f 5b 7d 0d 3f e8 5f e8 3f
       1.5992997 1.6253783 0.552694 1.8154268
000160 46 64 ad 3f dd 82 a8 3f 4c 24 38 3f 46 72 bc 3f
       1.3546226 1.3164936 0.71930385 1.4722373
000170 f6 64 d5 3f f4 06 8d 3f 5a 46 f1 3f 3b b2 96 3f
       1.6671436 1.1017747 1.8849595 1.1773142
000180 22 0f c1 3f e6 f1 a3 3f 14 33 a9 3f a9 23 bb 3f
       1.5082743 1.2808197 1.3218713 1.4620258
000190 9d 1a 9a 3f 60 e3 ca 3f 08 cf bb 3f 25 cd b6 3f
       1.2039372 1.5850639 1.4672556 1.4281355
0001a0 ba 85 81 3f 4a b7 b8 3f a5 b7 a6 3f 3b 45 64 3f
       1.0118935 1.4430935 1.3024794 0.8916814
0001b0 d9 d1 98 3f 29 3b 01 40 8e cd dd 3f a5 d3 7c 3e
       1.193904 2.0192358 1.7328355 0.24690111
0001c0 87 cb 47 3f dc d8 c2 3f f4 10 f0 3f 7d cb a7 3f
       0.78044933 1.522243 1.8755174 1.3108975
0001d0 24 6b 84 3f f6 4f 84 3f eb 10 6a 3f 79 4e b2 3f
       1.0345197 1.0336902 0.91432065 1.3930198
0001e0 00 3d 59 3f 45 69 a7 3f e3 0a 37 3f 4d 57 e1 3f
       0.84858704 1.3079001 0.71500987 1.7604767
0001f0 75 ea 81 3f b2 94 b1 3e 3f 77 0a 40 41 e4 2f 3f
       1.0149676 0.34683758 2.1635282 0.6870766

bn3.bias f4 [128]
000000 da 13 d7 3a f7 9f 38 3a 4f 8a 95 bd 7a 31 db b8
       0.0016409114 0.00070428796 -0.07301771 -0.000104519495
000010 4b e8 93 3a af 94 d3 3c a3 4d e1 3c 50 78 d4 3c
       0.0011284439 0.025827734 0.02750284 0.025936276
000020 0c 51 05 3e c2 58 22 39 79 08 0f 3e 7a 2d 04 3c
       0.13019198 0.00015482589 0.13968076 0.008067483
000030 a6 62 79 bc 94 c0 54 ba 8d 5a 1c b7 54 9b 34 be
       -0.0152212735 -0.00081158546 -9.319408e-06 -0.17637378
000040 ef ee 30 3e a3 6b 97 39 e5 70 f2 bd 3f 3a c7 3d
       0.17278646 0.0002888116 -0.11837939 0.097279064
000050 8d d4 68 3e d2 80 c0 3d b0 a8 b0 bd ed 05 f0 b8
       0.22737332 0.093995705 -0.086259246 -0.000114451956
000060 16 50 dc bb cb ca f7 ba ac bb c7 3d b2 7c 86 3e
       -0.006723414 -0.0018905042 0.097525924 0.2626701
000070 1d 57 6e ba 90 db c1 3d df 3d 44 b8 87 ea d1 3e
       -0.00090919604 0.09465706 -4.6787663e-05 0.40999243
000080 ee 99 55 3e 0a 31 3b 3c 19 74 7e 3d 12 57 ae 3d
       0.20859501 0.011425266 0.062122438 0.08512701
000090 99 5a 2d 3e 7c b4 99 3d fa 45 07 3e 96 23 2a bd
       0.16929092 0.07505128 0.13210288 -0.041537844
0000a0 05 6c 35 3a a0 d8 14 3e d9 da 89 bc c3 16 e2 3a
       0.0006920698 0.14535761 -0.016827988 0.0017249215
0000b0 24 a4 8b bc 2d 56 b4 b8 6b 10 34 3c 5a 70 32 ba
       -0.017046042 -8.59912e-05 0.0109902425 -0.0006806903
0000c0 50 b4 83 b9 8e 4b 5d bb 95 cc 28 ba c7 32 9c 3e
       -0.0002512061 -0.0033766958 -0.00064391765 0.3050749
0000d0 e3 b5 9c b9 a3 3c 88 3d e5 a4 c2 b8 48 d6 e6 3d
       -0.00029890155 0.066521905 -9.281355e-05 0.1127134
0000e0 28 f4 9c bc 34 b6 83 3d 1d 4d e2 3c 17 c3 96 bd
       -0.019159392 0.06431237 0.027624661 -0.07361429
0000f0 80 74 97 3d db c6 14 be 56 cb 48 3e f6 96 65 bb
       0.073952675 -0.14528982 0.19608817 -0.0035032607
000100 b3 26 13 3b a4 e5 b4 39 47 26 95 3d 92 99 90 bd
       0.0022453486 0.0003450337 0.072826914 -0.07060541
000110 09 7b c6 35 ad 52 8d b9 09 9e be b9 d9 0c 08 3e
       1.4787958e-06 -0.00026955214 -0.0003635737 0.13286151
000120 c3 84 08 3a 54 d5 0f bb 51 de 18 b9 f7 2d 22 be
       0.00052077713 -0.0021947222 -0.00014578669 -0.15837847
000130 4d 4c d5 3d 50 c9 91 b9 bd 9f 63 3d fc 5b c0 b9
       0.10414944 -0.00027806545 0.05557226 -0.00036689627
000140 0d 36 54 be 96 7c 12 3e d7 94 a6 3a 2f b8 19 bc
       -0.20723744 0.14305338 0.0012709153 -0.009382292
000150 81 7a 28 3d 47 63 7d 3e a2 3d 61 ba 49 9d ef 3d
       0.041132454 0.24744903 -0.0008592253 0.11699922
000160 a1 3c 43 3e 73 4d 5d 3b c7 b5 93 b9 d7 ba 75 be
       0.19066097 0.0033768087 -0.0002817346 -0.23997055
000170 f5 78 8b 3e 43 10 d8 bb 35 81 3a 3e a5 33 ac 3c
       0.2724072 -0.0065937354 0.18213351 0.02102072
000180 c1 c7 8a ba 72 24 fe 3c 98 d0 c5 3a f0 c4 3a ba
       -0.0010588096 0.031023238 0.0015092073 -0.0007124683
000190 cd 96 ad 3d e3 1f d4 3d a0 df 35 3e 03 0a bc 3b
       0.084760286 0.103576444 0.17761087 0.005738498
0001a0 f5 f2 95 b9 17 ef 35 3a e0 48 0f 3e 48 25 63 b9
       -0.00028600512 0.0006940229 0.13992643 -0.00021662295
0001b0 53 a5 35 bb e9 80 82 3e 4d b9 17 3e 60 f5 20 3b
       -0.002771695 0.25488976 0.1481678 0.0024560317
0001c0 01 d9 b9 b8 bc 1f 90 bd a9 49 4a 3e fc e1 e2 bd
       -8.8619076e-05 -0.07037303 0.19754662 -0.11078259
0001d0 ef f0 0b bb 5a fa 8f ba 42 66 d0 bd 83 22 c0 b8
       -0.0021353324 -0.0010984645 -0.10175754 -9.161702e-05
0001e0 66 a8 2b bc af 22 9c 39 03 0e fa b8 10 93 61 3e
       -0.010477161 0.0002978048 -0.00011923539 0.22028756
0001f0 bd 37 3c 3c 90 11 90 b8 f6 50 a2 3a dd ed 51 3c
       0.011487898 -6.869726e-05 0.0012383747 0.012813059

bn3.running_mean f4 [128]
000000 04 00 00 00 04 00 00 00 04 00 00 00 04 00 00 00
       6e-45 6e-45 6e-45 6e-45
000010 04 00 00 00 04 00 00 00 c3 60 c8 3b e9 63 b5 40
       6e-45 6e-45 0.0061150505 5.668446
000020 04 00 00 00 04 00 00 00 0c 0f 6d 3d 04 00 00 00
       6e-45 6e-45 0.057875678 6e-45
000030 d2 22 31 40 04 00 00 00 04 00 00 00 7a 32 15 3e
       2.7677503 6e-45 6e-45 0.14570037
000040 38 15 cd 3c 04 00 00 00 34 64 a4 3c 04 00 00 00
       0.025034532 6e-45 0.020067312 6e-45
000050 c0 21 27 3f 04 00 00 00 c8 99 53 3f 04 00 00 00
       0.65285873 6e-45 0.82656527 6e-45
000060 04 00 00 00 04 00 00 00 04 00 00 00 82 06 e6 3f
       6e-45 6e-45 6e-45 1.7970736
000070 04 00 00 00 04 00 00 00 04 00 00 00 fd f4 d0 3f
       6e-45 6e-45 6e-45 1.6324764
000080 d6 ea a7 3e 04 00 00 00 e4 4e 90 13 17 56 19 41
       0.32796353 6e-45 3.6428503e-27 9.583518
000090 04 00 00 00 b6 52 19 3e 04 00 00 00 04 00 00 00
       6e-45 0.14972958 6e-45 6e-45
0000a0 04 00 00 00 87 d7 98 0e d9 03 52 34 04 00 00 00
       6e-45 3.767844e-30 1.9559174e-07 6e-45
0000b0 4a 3f b8 40 04 00 00 00 04 00 00 00 04 00 00 00
       5.7577257 6e-45 6e-45 6e-45
0000c0 04 00 00 00 04 00 00 00 04 00 00 00 5a 32 68 3f
       6e-45 6e-45 6e-45 0.9070183
0000d0 04 00 00 00 04 00 00 00 04 00 00 00 69 95 0c 41
       6e-45 6e-45 6e-45 8.786477
0000e0 04 00 00 00 04 00 00 00 fc 9c 8d 18 80 45 ef 3b
       6e-45 6e-45 3.660616e-24 0.007301986
0000f0 04 00 00 00 d7 76 b4 3e ea fb 69 3f 04 00 00 00
       6e-45 0.35246918 0.91400015 6e-45
000100 04 00 00 00 04 00 00 00 43 dd ec 3d 04 00 00 00
       6e-45 6e-45 0.1156564 6e-45
000110 04 00 00 00 04 00 00 00 04 00 00 00 51 ad 06 3c
       6e-45 6e-45 6e-45 0.008220033
000120 04 00 00 00 04 00 00 00 04 00 00 00 cc de c1 3e
       6e-45 6e-45 6e-45 0.37865293
000130 04 00 00 00 04 00 00 00 0d ac b7 3d 04 00 00 00
       6e-45 6e-45 0.08968363 6e-45
000140 78 9b 10 3e 04 00 00 00 04 00 00 00 d8 c9 5c 40
       0.14121807 6e-45 6e-45 3.4498196
000150 29 d1 af 3d 04 00 00 00 04 00 00 00 ab 7f cf 3d
       0.08584816 6e-45 6e-45 0.101317726
000160 bc e1 3b 3f 04 00 00 00 04 00 00 00 04 00 00 00
       0.7339132 6e-45 6e-45 6e-45
000170 d3 2c 22 3e 04 00 00 00 56 52 ff 3b 5a 8a 83 3d
       0.15837412 6e-45 0.0077917976 0.06422873
000180 04 00 00 00 04 00 00 00 12 f9 b0 35 04 00 00 00
       6e-45 6e-45 1.3185511e-06 6e-45
000190 04 00 00 00 04 00 00 00 af e4 f6 3e 04 00 00 00
       6e-45 6e-45 0.48221347 6e-45
0001a0 04 00 00 00 04 00 00 00 d0 6f 0e 41 04 00 00 00
       6e-45 6e-45 8.902298 6e-45
0001b0 04 00 00 00 c2 60 79 3e ba 88 49 40 04 00 00 00
       6e-45 0.24353316 3.1489701 6e-45
0001c0 04 00 00 00 db 99 0a 3b 6f a4 8c 3a 95 3b fd 3e
       6e-45 0.0021148834 0.0010730157 0.4945952
0001d0 04 00 00 00 04 00 00 00 04 00 00 00 04 00 00 00
       6e-45 6e-45 6e-45 6e-45
0001e0 04 00 00 00 04 00 00 00 04 00 00 00 be b2 f2 3e
       6e-45 6e-45 6e-45 0.47401994
0001f0 04 00 00 00 04 00 00 00 04 00 00 00 04 00 00 00
       6e-45 6e-45 6e-45 6e-45

bn3.running_var f4 [128]
000000 04 00 00 00 04 00 00 00 04 00 00 00 04 00 00 00
       6e-45 6e-45 6e-45 6e-45
000010 04 00 00 00 04 00 00 00 e9 b3 b0 3c 1c ee 75 41
       6e-45 6e-45 0.021570163 15.370632
000020 04 00 00 00 04 00 00 00 3b bc 19 3e 04 00 00 00
       6e-45 6e-45 0.1501321 6e-45
000030 a6 66 40 41 04 00 00 00 04 00 00 00 ef aa 68 3f
       12.025061 6e-45 6e-45 0.90885824
000040 3b 58 38 3e 04 00 00 00 a9 b7 67 3d 04 00 00 00
       0.18002407 6e-45 0.056571636 6e-45
000050 82 5d 3e 40 04 00 00 00 82 fa 88 40 04 00 00 00
       2.9744573 6e-45 4.2805796 6e-45
000060 04 00 00 00 04 00 00 00 04 00 00 00 ee 8b 0e 41
       6e-45 6e-45 6e-45 8.9091625
000070 04 00 00 00 04 00 00 00 04 00 00 00 2f 88 da 40
       6e-45 6e-45 6e-45 6.829124
000080 1e b3 0c 40 04 00 00 00 8c 26 9b 13 75 38 02 42
       2.1984324 6e-45 3.916551e-27 32.555134
000090 04 00 00 00 06 7c 4b 3f 04 00 00 00 04 00 00 00
       6e-45 0.7948612 6e-45 6e-45
0000a0 04 00 00 00 03 bf c5 0e 24 3a 84 32 04 00 00 00
       6e-45 4.8748187e-30 1.5393262e-08 6e-45
0000b0 1c ac 73 41 04 00 00 00 04 00 00 00 04 00 00 00
       15.229519 6e-45 6e-45 6e-45
0000c0 04 00 00 00 04 00 00 00 04 00 00 00 8a e4 2b 40
       6e-45 6e-45 6e-45 2.685824
0000d0 04 00 00 00 04 00 00 00 04 00 00 00 bd ee 29 42
       6e-45 6e-45 6e-45 42.483143
0000e0 04 00 00 00 04 00 00 00 88 10 a5 17 8e 41 a9 3c
       6e-45 6e-45 1.0667048e-24 0.020661142
0000f0 04 00 00 00 2c 5b b1 3f 7b b9 1d 41 04 00 00 00
       6e-45 1.3855948 9.857783 6e-45
000100 04 00 00 00 04 00 00 00 d1 70 0a 3f 04 00 00 00
       6e-45 6e-45 0.54078394 6e-45
000110 04 00 00 00 04 00 00 00 04 00 00 00 a9 44 f6 3c
       6e-45 6e-45 6e-45 0.030062037
000120 04 00 00 00 04 00 00 00 04 00 00 00 c5 8b 14 40
       6e-45 6e-45 6e-45 2.3210309
000130 04 00 00 00 04 00 00 00 60 ac f4 3e 04 00 00 00
       6e-45 6e-45 0.47787762 6e-45
000140 8a eb 63 3f 04 00 00 00 04 00 00 00 1d 2e 5b 41
       0.8903128 6e-45 6e-45 13.698758
000150 da 2e 10 3f 04 00 00 00 04 00 00 00 de 0e 93 3e
       0.5632149 6e-45 6e-45 0.2872228
000160 3c ed 49 40 04 00 00 00 04 00 00 00 04 00 00 00
       3.1551046 6e-45 6e-45 6e-45
000170 d9 76 91 3f 04 00 00 00 bb 9c 2b 3d 79 17 f0 3d
       1.1364394 6e-45 0.041897517 0.11723227
000180 04 00 00 00 04 00 00 00 7b f3 ff 35 04 00 00 00
       6e-45 6e-45 1.9069843e-06 6e-45
000190 04 00 00 00 04 00 00 00 6b 63 17 40 04 00 00 00
       6e-45 6e-45 2.365443 6e-45
0001a0 04 00 00 00 04 00 00 00 b1 3a 0b 42 04 00 00 00
       6e-45 6e-45 34.807316 6e-45
0001b0 04 00 00 00 09 cb 87 3f ce 5b 98 41 04 00 00 00
       6e-45 1.0608836 19.044827 6e-45
0001c0 04 00 00 00 d8 51 e9 3b 7c 98 45 3b f0 72 61 3f
       6e-45 0.0071203522 0.0030150702 0.88066006
0001d0 04 00 00 00 04 00 00 00 04 00 00 00 04 00 00 00
       6e-45 6e-45 6e-45 6e-45
0001e0 04 00 00 00 04 00 00 00 04 00 00 00 90 4d 9e 40
       6e-45 6e-45 6e-45 4.946968
0001f0 04 00 00 00 04 00 00 00 04 00 00 00 04 00 00 00
       6e-45 6e-45 6e-45 6e-45
